Computer_Vision/Lesson_2/data/conv_net.onnx (onnx, 241822 bytes, 10 tensors)

convolution_1.weight f4 [8, 1, 5, 5]
000000 58 87 c8 3e 17 6b c5 3e 30 5d d0 3e 79 3b 99 3e
       0.3916576 0.38558266 0.40696096 0.29928187
000010 4a c1 9d 3e bf 17 a1 3e 22 cc 9a 3e e9 57 0f 3e
       0.3081153 0.3146343 0.30233866 0.13998379
000020 9e 1f 21 3e df 2d b2 3c a7 b8 89 bd e3 66 28 3d
       0.15734717 0.021750389 -0.06724673 0.041113745
000030 a4 dc 6f 3d 3f 3a 3e be 79 cb 3d be 18 14 b2 be
       0.05856003 -0.18576907 -0.1853465 -0.34780955
000040 c6 fb d6 be d7 e6 e9 be 02 f1 a3 be 52 a0 92 be
       -0.41988963 -0.4568393 -0.32019812 -0.2863794
000050 d8 f2 84 be 42 5f d6 be f2 ce 85 be 9a fb 9d bd
       -0.25966525 -0.4186955 -0.2613445 -0.07714005
000060 00 ad 0a 3d a9 d4 08 be cc cb 5e 3e 4d 34 5d 3e
       0.033856392 -0.13362373 0.2175743 0.21601982
000070 4b 5b 18 3c e9 64 f3 bd 01 96 17 3e cd 4c 06 3e
       0.00929911 -0.118844815 0.14803316 0.13115235
000080 a2 ad 61 be f2 1f 94 be 2c 00 ef bd 67 ac f3 bc
       -0.22038892 -0.28930622 -0.11669955 -0.029745294
000090 fd 4c 35 be b4 dc ce be 75 db 29 be 44 33 eb 3c
       -0.1770515 -0.40402758 -0.16587622 0.028710969
0000a0 a2 69 ad 3d 16 92 2f 38 59 ea 96 3d 2b 71 7d 3e
       0.084674135 4.1859304e-05 0.07368917 0.24750201
0000b0 7a d2 73 3e ac ea ad 3e ba 0a 34 3e df 9c 6b 3e
       0.23810759 0.33968103 0.17582217 0.2300906
0000c0 75 e3 93 3e 99 67 91 3e 83 32 29 3b 54 bf f1 3d
       0.28884473 0.2839935 0.002581746 0.11804071
0000d0 f0 83 97 bc f1 e7 b3 3d 90 1d a1 3e 3e 2a 40 3e
       -0.01849553 0.08784474 0.31467867 0.18766114
0000e0 50 04 b8 be cb 73 d2 be f4 a4 17 be f2 b3 8c 3e
       -0.3594079 -0.41103968 -0.14809018 0.27481037
0000f0 76 fe 20 3f 3f 9e 92 be 94 76 d9 be 01 f1 9d be
       0.62888277 -0.28636357 -0.4247328 -0.30847934
000100 a5 ef 75 3e 1c f1 e3 3e d9 c1 d8 3e 63 2b 8d be
       0.24017198 0.4451989 0.42335394 -0.27572164
000110 49 24 8a be 50 fc 92 3c d0 39 9b bd d3 14 a8 3e
       -0.26980808 0.017942578 -0.07579386 0.32828388
000120 d2 51 7a 3e 03 bc cb 3b e0 22 d3 3b 66 62 84 3e
       0.24445274 0.006217481 0.0064433664 0.25856322
000130 d5 86 5c 3e d7 d8 84 3e 91 bf 2e 3e 9c 7a cd 3d
       0.2153581 0.25946686 0.17065264 0.100331515
000140 27 87 c9 3e de a5 83 3e e9 e8 6d 3e 38 72 ec 3c
       0.39360926 0.25712484 0.2323338 0.028863057
000150 e0 65 25 bd 0f 8d d8 3e aa a3 55 3e cb f7 8c bd
       -0.04038036 0.4229512 0.20863214 -0.068832
000160 54 08 04 be 28 60 67 be 6e af 60 3e b8 70 6d bd
       -0.12893802 -0.22595274 0.21941921 -0.057968825
000170 3a e1 31 bd 7d c5 9d bd cd dd 82 be b3 11 92 3d
       -0.043427683 -0.077036835 -0.25559846 0.07132282
000180 c4 5d d6 3d 3c 93 02 bd 54 b5 f6 bd a2 94 92 be
       0.10467103 -0.031878695 -0.12046304 -0.28629023
000190 af 7b 6a 3a b7 6f ff 3e ff a0 9c 3c 9a 4f 3c be
       0.0008944822 0.4988992 0.019119738 -0.1838974
0001a0 8f e6 30 be f0 02 db bc c4 d7 b9 3d d9 c4 5c ba
       -0.17275451 -0.0267348 0.09074357 -0.00084216666
0001b0 8b eb 23 bf 1c de a2 3d 21 bc 11 bd ed 2d d1 bc
       -0.64031285 0.0795252 -0.035579804 -0.025534594
0001c0 a8 da f1 3d 15 27 c2 3e 5d 80 d1 3e 31 9f 1a bd
       0.118092835 0.37920442 0.40918246 -0.037749473
0001d0 ec 7f 2a 3e 18 ad 73 3e 8d ed 0b 3f 5f cc 57 3e
       0.16650361 0.23796499 0.5465935 0.21074055
0001e0 ab e9 19 3d 80 57 90 3c f5 d5 f6 bc ee 75 94 be
       0.03757636 0.017619848 -0.03013132 -0.28996223
0001f0 38 40 95 3c 2a 93 a4 be 18 af f5 be 59 76 25 be
       0.018219098 -0.32143527 -0.47985148 -0.16158427
000200 58 4b 07 be 03 52 b6 3c 4d e0 8d 3e 8d 99 ae be
       -0.13212335 0.022255903 0.2771019 -0.34101525
000210 9c 58 b9 be f8 dc 8f be 85 dd 5d be 01 a0 ff 3e
       -0.36200416 -0.28098273 -0.21666534 0.4992676
000220 c1 18 38 3e 06 a7 fb 3d 21 4f 26 bc bf e5 3c be
       0.17978193 0.122877166 -0.010150702 -0.18447016
000230 3e 46 3f 3e 28 a5 d1 3e e0 b6 2e 3e d9 86 1e 3e
       0.18679139 0.40946317 0.17061949 0.15481128
000240 67 55 9a 3a ce c0 07 be ac df 82 3d 35 00 8b 3e
       0.001177472 -0.13257143 0.06390318 0.27148595
000250 dc be 9f 3e 8a 32 aa 3e 18 5d 15 3e b9 13 34 3e
       0.31200302 0.33241683 0.14586294 0.17585649
000260 13 17 b4 3d b4 56 ae bc 3b d9 d5 bd f0 6e de 3d
       0.087934636 -0.021281578 -0.10441824 0.108610034
000270 8a ac 72 3e 1c f8 f7 3d 4d 5b 85 be c4 d6 e5 bd
       0.23698631 0.1210787 -0.2604622 -0.11222604
000280 ef 37 bc 3d d5 38 a3 3e f1 c3 93 3d 05 dc e4 be
       0.09190356 0.31879297 0.07215107 -0.44699112
000290 63 d2 5f be 6c 13 e4 bc cc 7c 9a 3e 67 f8 51 3c
       -0.218576 -0.027841292 0.30173337 0.012815571
0002a0 b5 18 c4 be f6 dc 2b be 5a 37 e5 bc dd c4 ac 3e
       -0.383001 -0.16783509 -0.027980495 0.33743945
0002b0 6f ab 04 3e ec bb 3d bd d2 a2 71 3d 1c 0f 4b be
       0.12956022 -0.046321794 0.05899317 -0.19829983
0002c0 d5 b8 9d be 9f 88 48 be d0 88 28 3e 0a 2b 54 3d
       -0.30805078 -0.19583367 0.1645844 0.051798858
0002d0 a4 cd f3 be 21 be b3 bd 5d 05 c9 3e 67 69 4c 3e
       -0.4761783 -0.087764986 0.39261904 0.19962083
0002e0 6b 1e 93 bc 6c e0 83 be 6a c3 15 3e 9e 9d 0f 3f
       -0.01795884 -0.25757158 0.14625326 0.5609988
0002f0 b0 40 c7 bd 8d 28 4a be ad be a5 bd 3d 50 e6 3e
       -0.09729135 -0.19742031 -0.08093009 0.44983092
000300 e1 51 ab 3d 76 a9 47 be 74 21 3b be a2 a8 ee 3d
       0.083652265 -0.19498238 -0.1827448 0.11653258
000310 62 67 a8 3d e2 99 66 bd f1 20 19 be c6 c5 33 bd
       0.08222844 -0.056299098 -0.14953972 -0.043889783

convolution_1.bias f4 [8]
000000 a8 90 1b bf 8d 9e 4b 3e 39 d1 02 bf 76 3b df 3e
       -0.607676 0.19884701 -0.511005 0.43600053
000010 e4 66 ff 3e a2 72 6d be 59 a5 28 be e3 0a 35 bf
       0.49883187 -0.2318826 -0.16469325 -0.70719737

convolution_2.weight f4 [8, 8, 3, 3]
000000 f4 e1 2f be ee b3 08 bd 7a da 70 3e e8 7f be 3e
       -0.17176038 -0.03337472 0.23520842 0.3720696
000010 05 b3 fd 3c b4 d0 58 3e 0e 05 44 3d a4 5c b4 3e
       0.030969152 0.21173364 0.047856383 0.3522693
000020 34 7b 27 3e 8a 28 3c bc 09 02 9e bb da 85 a5 bd
       0.16355592 -0.011484275 -0.00482202 -0.08082171
000030 56 57 80 3e 52 a1 87 3e 14 5e 6e bc 8f ea a7 3d
       0.25066632 0.26490265 -0.014548797 0.081990354
000040 c7 b9 96 3d 3d 3a 03 3e 1e 95 3f 3e 51 c3 cc 3d
       0.07359653 0.12815185 0.18709227 0.09998191
000050 f0 ec 51 3e 7e 6a c8 3e e8 3d 0f 3e bb 7d ce bd
       0.2050054 0.39143747 0.13988459 -0.10082575
000060 cf 60 e0 bd 3b e3 0e be 11 da 37 be 8b f5 d6 bd
       -0.10955965 -0.13953869 -0.1795428 -0.10496052
000070 bd c3 b2 bd 43 33 8a bc 2f ca cb be 16 d8 08 be
       -0.0872874 -0.016870147 -0.3980269 -0.1336368
000080 ad bf 34 be 81 5b 99 be b4 c0 c1 bd 47 36 19 be
       -0.17651244 -0.29952624 -0.09460583 -0.14962111
000090 8b b6 27 bd 0a 10 5c 3d a6 b4 e1 3c cf b5 f4 bb
       -0.04094557 0.053726234 0.02755196 -0.0074679623
0000a0 3a 86 51 3d 8c ec 27 be c5 7d 0b 3e 80 06 30 3e
       0.0511534 -0.16398829 0.13622196 0.1718998
0000b0 70 59 b4 3c f0 69 e0 3c 66 fa 55 3e 61 29 18 be
       0.022015303 0.027394265 0.208963 -0.14859535
0000c0 fc 32 4c 3e d4 ba d6 3d 75 e0 19 bd 1a f1 15 3e
       0.19941324 0.104848534 -0.037567575 0.14642754
0000d0 73 a6 4c 3e 5f c7 d9 3d c7 12 19 3e 36 b2 e2 3c
       0.1998537 0.1063373 0.14948569 0.027672868
0000e0 b8 78 cd bd e3 46 cd bc ee e0 eb bd 02 de 4e 3d
       -0.10032791 -0.025058215 -0.11517511 0.050504692
0000f0 98 14 6a be 2b ee 33 be 81 06 65 bd d6 60 bc bd
       -0.22859418 -0.17571323 -0.055914406 -0.091981575
000100 65 4f a6 3d 69 e7 3c 3e 0f cb 7c be 1a 08 26 3e
       0.08120612 0.18447651 -0.24686836 0.16214028
000110 92 49 b3 3d 42 97 bb bc b5 53 ad 3d b2 81 a6 3c
       0.08754267 -0.022899274 0.084632315 0.020325515
000120 a9 59 b1 be fd 64 8f be 39 08 af 3d 5b 94 c0 be
       -0.34638718 -0.28006735 0.0854649 -0.37613186
000130 e0 72 be bc ea e8 b7 3d 60 90 17 be c1 bc 2d 3e
       -0.023248136 0.08979972 -0.14801168 0.16966535
000140 93 11 ae 3e 1d bb 19 3e 09 95 5f 3e ea a0 b6 3d
       0.33997783 0.15012784 0.21834196 0.08917411
000150 f2 c3 43 3e 23 2b 92 be 30 ac 7e 3d e2 9e 38 3c
       0.19117716 -0.28548536 0.06217593 0.011268349
000160 7c db f3 3d 22 18 97 3e 53 40 09 3d b1 bd 48 3d
       0.11907098 0.295106 0.03350861 0.04900903
000170 91 4f b1 bd bd 74 27 3e ce 1d 3a 3d e3 a2 12 bd
       -0.08657754 0.16353126 0.04543858 -0.035799872
000180 36 a4 20 3e 94 f4 3e 3e 9e ee 24 3e 44 c6 b3 3e
       0.15687642 0.18647987 0.1610665 0.35112202
000190 1f 1a 53 3e 53 22 41 3e 7d ad 32 3e b9 7b 7f 3c
       0.20615433 0.1886075 0.17448993 0.015593463
0001a0 18 38 56 bd b6 87 54 be 18 91 c6 be 99 ab 79 be
       -0.05229959 -0.20754895 -0.38782573 -0.24381866
0001b0 82 ee 7f 3e 0d eb 04 3e 25 0b 4a 3e 6b fe 91 3e
       0.24993327 0.1298029 0.19730814 0.28514418
0001c0 de 6f 22 3e 7a ad 55 3d 7d 27 24 3d 75 f0 2d 3e
       0.15862986 0.052167393 0.04007672 0.16986258
0001d0 bb ec 01 3e 2f 0c 89 be 5a 93 7d bd 24 20 d3 bd
       0.12687962 -0.26767108 -0.061908104 -0.10308865
0001e0 cf aa ac bd af 90 3a bc 68 34 9d 3c ee 34 21 3e
       -0.08431017 -0.011387034 0.019190028 0.15742847
0001f0 19 c5 8b 3d a0 13 c8 3d 27 5d d5 3d 56 b4 0c 3e
       0.06824703 0.09769368 0.10418158 0.13740668
000200 a7 e8 28 3d 74 13 d5 3c 2e af 45 bd 91 fe bb bd
       0.0412375 0.026010253 -0.048262767 -0.09179414
000210 39 36 5f be cc 1f af bd a0 73 4d bd 30 73 9c 3d
       -0.21798028 -0.08550987 -0.050159097 0.07639158
000220 1a db 4e 3e 03 c1 44 3e e9 f1 d9 bd 26 41 04 bb
       0.20200768 0.19214253 -0.10641844 -0.0020180433
000230 df 33 a4 3d d3 4a 6d be cc a4 77 be 39 ef 23 be
       0.08017706 -0.23173074 -0.24183959 -0.16009225
000240 81 3e c9 be e9 0f b4 bc e2 a4 14 be 44 1c 23 be
       -0.393055 -0.021980243 -0.14516023 -0.15928751
000250 5b b4 9e bc 05 e6 a7 bd ad ab 34 bd 2c 48 d8 bc
       -0.01937311 -0.081981696 -0.044109035 -0.026401602
000260 77 3c 75 3e c6 02 1c 3c 84 70 90 3c 18 26 31 be
       0.23948847 0.009522146 0.017631777 -0.17299688
000270 5a 36 f7 be d5 3d 7f bc 4e 21 f8 bd 8a 04 a8 be
       -0.48283654 -0.015578707 -0.12115727 -0.32815963
000280 7f 8f 27 bd 88 66 c5 bc 8d c8 77 3e 2a be 6b 3e
       -0.040908333 -0.024096742 0.24197598 0.2302176
000290 e6 61 a7 3d c8 56 86 3d 6f 98 8c 3e 31 54 03 3e
       0.081729695 0.06559521 0.27460048 0.12825085
0002a0 dc 3c f4 3c 86 b1 9c 3e 26 7b a9 3e ed b0 86 3e
       0.029814176 0.3060419 0.33101767 0.2630686
0002b0 0a 17 82 3e de 0a 6c 3e bf cf c7 be de b0 fb bd
       0.25408202 0.2305102 -0.39025685 -0.12289594
0002c0 58 22 8f bd 4f d6 16 bf 60 72 ca be 65 fd 7e be
       -0.069889724 -0.5892076 -0.39540386 -0.2490135
0002d0 d1 d4 94 3c 77 cd 42 be 9c 84 28 3e e6 84 80 3e
       0.018167885 -0.19023691 0.16456836 0.25101393
0002e0 13 96 8f bd 19 48 92 3e 8d aa c2 39 24 e2 17 3e
       -0.07011046 0.2857063 0.00037129634 0.1483236
0002f0 c7 ae db 3d 11 27 90 3e 07 01 02 3e 92 a7 b5 bd
       0.107266955 0.28154805 0.12695704 -0.08869852
000300 57 1a 3f be 96 dd 11 3e 91 66 10 3d 7d 3d bd bd
       -0.18662392 0.14244685 0.035254065 -0.092402436
000310 58 83 ba 3d cd 62 b7 3c 99 df be 3e 0f 4f a8 3d
       0.09107083 0.02238598 0.37279966 0.08218204
000320 d3 0b 37 3e 7c 54 43 3d b1 93 82 3e 99 df f4 3d
       0.17875604 0.047687992 0.25503305 0.1195671
000330 1e 0e db bd 93 99 89 3d 4a 9a 82 3d ed d9 91 bd
       -0.10696052 0.06718745 0.063770846 -0.07121644
000340 f7 12 9b bd c3 83 03 3e f2 b5 38 be 5c d5 19 be
       -0.07571977 0.12843232 -0.18038157 -0.15022796
000350 58 ae fe 3c b5 8e ab 3d 22 97 85 bd 53 c1 46 bd
       0.031088993 0.083768286 -0.06522967 -0.048524212
000360 8e 7a d2 bc 61 2a 43 be 02 7c 1b 3d af 98 fc be
       -0.025693204 -0.19059135 0.03796006 -0.49335238
000370 50 9f a2 be fa 7f 90 bd bf 58 88 be 51 de a1 bd
       -0.3176217 -0.070556596 -0.26630208 -0.079037316
000380 f1 b7 16 3e 6a 96 d9 bd 29 99 30 bd 35 d9 95 bd
       0.14718606 -0.10624392 -0.043114815 -0.073168196
000390 c0 eb 16 be b6 69 ac 3d b3 83 8e 3d aa 66 0f 3d
       -0.14738369 0.084186 0.069587134 0.035010017
0003a0 88 ce 49 3d 5e 7e 57 bc 47 c0 82 be 0f 5f b3 3d
       0.04926923 -0.013152687 -0.2553732 0.08758365
0003b0 85 ae 80 3e 8c 19 a2 3a dc 97 4f 3d db 2e 56 3d
       0.25133148 0.0012367233 0.050681934 0.05229078
0003c0 37 6d d6 3d cb 32 25 bd bd 2c 1f be 25 6b 91 bd
       0.1047005 -0.040331643 -0.1554441 -0.07100514
0003d0 2e e5 02 3e 5a 51 5a 3e d7 15 dc bd c6 75 39 be
       0.12782738 0.21320096 -0.10746353 -0.18111333
0003e0 ae 60 1a 3e 5a 72 6a bd b1 c6 ad 3d 93 e3 df bd
       0.15075943 -0.05723796 0.08485163 -0.10932078
0003f0 8a 91 05 be 4f 00 53 3d f8 4e f0 bd 18 ed 75 3d
       -0.130438 0.051513966 -0.11733812 0.060040563

convolution_2.bias f4 [8]
000000 ee 63 22 bf 4d c2 22 3c 33 71 4b bc 97 e5 39 be
       -0.6343373 0.00993402 -0.0124171255 -0.18153988
000010 7b 7d 9e bd f2 db af be 36 c3 79 be d1 9d 56 be
       -0.07738777 -0.34347492 -0.24390873 -0.2095864

fc_1.weight f4 [128, 392]
000000 7d ae 8b 3d db 05 6d 3d ca 19 82 3d 7c 47 21 bc
       0.068203904 0.057866912 0.06352575 -0.009843703
000010 0e 83 70 3d 48 df 0e 3c 37 95 69 3b 0b e3 0c bd
       0.058718733 0.008720227 0.0035641917 -0.034396213
000020 ab d4 35 bd 21 78 71 bd e3 1c a0 bd 6f 39 cc bc
       -0.04439227 -0.058952454 -0.0781801 -0.02492973
000030 27 db 40 bb 02 05 17 bd 70 8d 91 bc 5c 11 7e bd
       -0.00294275 -0.03687001 -0.017767638 -0.062028274
000040 33 bd 00 bd b0 f7 94 bd f2 a7 c9 3b bf e8 38 bc
       -0.031430434 -0.07273805 0.006154054 -0.01128596
000050 15 48 4f 3d e0 6b b5 bd d6 4e c2 bd a4 7e ac bc
       0.050605852 -0.08858466 -0.09487693 -0.02105648
000060 99 7c 21 bd 04 0c 2a 3c 1e 54 92 bc b0 f3 ae 3b
       -0.039425466 0.010378841 -0.017862376 0.0053391084
000070 5d a8 35 bc ba db cb bd f1 81 5c bd 92 b2 b9 bd
       -0.011087504 -0.09954019 -0.05383486 -0.09067263
000080 c8 1a 5e bc 44 07 0c 3d 2c e4 86 3d 6d b2 10 bd
       -0.01355619 0.034186617 0.06586489 -0.03532641
000090 ed 76 9b bd 46 89 65 bd 6f 27 f1 bd 5f 84 fd bc
       -0.07591043 -0.056039117 -0.117750995 -0.030946909
0000a0 76 62 0e 3d e3 b5 bc 3d a0 e9 f1 3c 6d f6 9d bb
       0.03476187 0.0921438 0.029530346 -0.004820636
0000b0 a2 a2 8f bc a4 cf 83 bd 04 0d bc 3c 70 17 2e 3b
       -0.017533604 -0.06436089 0.022955425 0.0026564263
0000c0 3f da 2d 3d 1f 8a e5 bb bb ba cd 3b d3 23 14 3c
       0.042444464 -0.0070049907 0.0062783635 0.009041744
0000d0 6a ab 2a bd 0d c4 8c bc 2a 4e b8 3c e7 1a 9b bc
       -0.04166738 -0.017183328 0.022498209 -0.018933726
0000e0 98 ad 21 bc eb 94 68 bd fb 39 1e 3d db 8b 72 bc
       -0.009868048 -0.056782644 0.038629513 -0.014803852
0000f0 34 6f 87 bc a2 35 27 bc b3 ef 14 bd 14 3d 50 3c
       -0.016532518 -0.010205658 -0.036361407 0.012709875
000100 2c 8b 75 bc 08 56 14 3d 1a a2 be bb f1 d1 e8 bd
       -0.014986794 0.03621486 -0.005817664 -0.11368168
000110 c0 06 df 3c 85 1a 31 bb ce 0b 3f 3c 15 08 64 3d
       0.027224898 -0.0027023864 0.011660529 0.05567177
000120 f8 d7 c5 bb 84 68 f0 3a ac 93 75 bd 2f 3a 2f 3d
       -0.0060377084 0.0018341695 -0.059955284 0.042780098
000130 fb 69 71 3d d6 c8 95 3d 4b 7d 85 3d 94 81 7d 3d
       0.05893896 0.07313697 0.06518038 0.061891153
000140 40 32 01 3e 55 0e 59 3d 54 66 9a 3d 39 e1 63 3c
       0.12616825 0.052992184 0.07539049 0.013908678
000150 de 17 f7 bc 34 57 03 bd 18 d1 4c 3d 77 37 8e 3d
       -0.030162748 -0.032065585 0.050004095 0.06944173
000160 03 e2 a4 3d 2e ab df bc 68 8f 3f bd ce cb 15 bd
       0.08050921 -0.027303305 -0.046767622 -0.036571316
000170 b0 d9 d0 bc 7b 45 e3 3a dc 28 0f bc fd 7d 23 3b
       -0.025494426 0.0017339432 -0.008737769 0.002494692
000180 d5 c0 75 bd ee 2f df bc 3f af e8 bb 77 57 c5 3c
       -0.059998352 -0.027244534 -0.007100969 0.024089558
000190 57 58 47 bc a1 78 64 3b f2 d1 ec bc b2 96 17 3d
       -0.012167058 0.003486194 -0.028908703 0.03700895
0001a0 88 b6 90 bc bc 93 ce bb 63 c4 3c bd d5 da f2 bc
       -0.017665163 -0.0063042324 -0.046085726 -0.029645363
0001b0 5a 88 12 bc c6 17 5d 3d b5 d7 5d 3d b5 40 91 3d
       -0.008943642 0.05397775 0.054160792 0.0709242
0001c0 78 96 0b bc 3c a2 93 bc 84 48 29 3d 13 52 ab 3d
       -0.008519761 -0.018021695 0.041328922 0.08365264
0001d0 a5 7f 70 3d be c6 02 3d 81 9e fd bc ee 9a 04 bd
       0.05871548 0.031927817 -0.03095937 -0.032374315
0001e0 c4 23 0f 3c cd c5 47 3d e0 6a 58 bb e7 b4 89 3c
       0.0087365545 0.048772622 -0.0033022687 0.016809894
0001f0 51 ae 26 bc 44 76 ee 3b 68 23 49 3d 7b a4 17 bd
       -0.010173396 0.007277282 0.04910603 -0.037022095
000200 26 6e 0c bd fb 6a 4c bd 96 fa 99 bd f2 03 80 bc
       -0.034284733 -0.049906712 -0.075184986 -0.015626881
000210 64 11 ef bb d6 ff e3 3b 2c dd 24 3d c3 82 11 3b
       -0.0072957743 0.0069579883 0.04024999 0.0022203184
000220 7e dc ac 39 55 40 fd 3c 14 0c a6 3c a1 8f 8c bb
       0.00032970676 0.030914465 0.020269431 -0.004289583
000230 3a 3c 1e 3d ca c1 5c bc 0c 43 2a 3c de 9e ed 3c
       0.038631655 -0.013473937 0.010391962 0.029006418
000240 74 00 f0 3c 29 91 2a bd ab a4 b2 bc 91 63 c0 bc
       0.029297091 -0.04164234 -0.021807035 -0.023484977
000250 94 46 26 3d 01 d4 ee bc 3e 7b cd bc e6 12 b4 bc
       0.040594652 -0.029153826 -0.02508318 -0.021981668
000260 51 dc 35 3d ed fe 9d bc fa b0 ca 3c cd 49 a1 3c
       0.044399563 -0.019286597 0.024742592 0.019688511
000270 16 11 15 bc d9 47 9e bd 87 46 31 bd ad c9 c4 bc
       -0.009098312 -0.077285476 -0.04328015 -0.024021948
000280 fd d2 96 bb cd 5b 17 3d cc 38 ac 3c 5e 24 bb 3c
       -0.0046027885 0.036952782 0.021023177 0.02284449
000290 ac f0 21 3d 73 e4 86 bd 10 1b 18 bd c2 4d ae 3c
       0.039536163 -0.06586542 -0.037135184 0.021277312
0002a0 c1 50 84 3d b6 c8 0d bd 56 92 3e bc 52 0d 01 3d
       0.06460715 -0.03461524 -0.011631569 0.031506844
0002b0 b9 f1 50 3a 69 10 98 b9 0e 2e 95 39 22 56 ce bc
       0.000797059 -0.00029003926 0.00028453808 -0.025187556
0002c0 91 42 42 3d c3 cb e8 bc fc d7 ab 3b d3 4a dd bb
       0.047426764 -0.028417474 0.005244253 -0.0067533045
0002d0 41 f5 52 bd 67 ea 95 3c 81 2f 9b bc dc 43 1e 3d
       -0.051503424 0.018300248 -0.01894355 0.038638934
0002e0 8e f9 5b 3d 43 3e 9e bc 98 90 63 bd 5d b3 d7 bc
       0.05370479 -0.019316798 -0.055557817 -0.026330644
0002f0 f0 4e af bd d6 39 05 bd 9e c7 07 3d 74 b5 35 3d
       -0.08559978 -0.03252586 0.033149354 0.0443625
000300 6f c6 9f bd 7d 18 8e bd de 75 d8 bd 0f 4e 92 b9
       -0.0780152 -0.069382645 -0.105693564 -0.00027905448
000310 e7 50 19 bc a9 a0 27 bc e2 e2 19 3d 88 54 f2 3c
       -0.0093576675 -0.010231175 0.037569888 0.029581323
000320 4c ac 0f bb fc c2 3d 3c 01 37 df bc c9 0c 0c bd
       -0.0021922765 0.011582132 -0.027247908 -0.03419188
000330 b1 d1 7e bc 50 5a 5a 3c 60 3f d5 3d 57 2b a8 3d
       -0.015552924 0.013327196 0.104124784 0.082113914
000340 a0 92 8d 3c 4d 88 de 3c ea 6f ff bc 59 61 c5 3b
       0.01728183 0.027164603 -0.031181294 0.0060235676
000350 32 cc 36 3d 92 c4 de ba e3 b5 49 3d 57 e8 26 bd
       0.04462833 -0.0016995838 0.049245726 -0.04074892
000360 c8 40 8d bb 87 2c aa bc a3 b5 84 3d e8 83 b7 3c
       -0.004310701 -0.020773185 0.06479957 0.022401765
000370 3f 34 a1 bb e3 cb 10 3c d3 e7 ef 3c 61 fa a3 3b
       -0.0049195583 0.008837673 0.029285347 0.0050042127
000380 09 68 3a 3d 32 e6 d7 3c 99 12 23 3d 75 f2 fd bc
       0.045509372 0.026354883 0.039812658 -0.030999402
000390 89 6e a5 3b db 15 92 3c fc 0d 38 3d d1 de 1b 3d
       0.005048577 0.017832687 0.04493521 0.03805429
0003a0 71 d8 4c bb 97 fc 90 3c 9e 53 5b bd ef f0 81 3d
       -0.0031256939 0.01769857 -0.05354654 0.063447826
0003b0 12 40 84 3b b6 15 4e bc 02 6c f9 bc f5 0b a9 3d
       0.004035958 -0.0125784185 -0.03044701 0.08254234
0003c0 0c 93 d6 3c a4 fa a3 bc 4f 69 1a bc e0 2f 80 bd
       0.026193164 -0.020016976 -0.009424522 -0.062591314
0003d0 15 92 d4 bc 19 f0 23 3d a5 3b 33 3d a7 a7 4e 3d
       -0.025948564 0.040023897 0.043758053 0.050452854
0003e0 40 23 37 bd 02 2d 4f bd 24 36 b7 3c 8c 43 19 bc
       -0.04471135 -0.050580032 0.022364683 -0.009354483
0003f0 c9 18 27 3d a4 e6 5a bd c1 66 98 bd 05 b0 a9 bc
       0.04079512 -0.053442612 -0.07441474 -0.020713815

fc_1.bias f4 [128]
000000 be 04 68 3d ff f2 28 bd 4c 9a 55 3b 55 35 5f 3d
       0.056645148 -0.041247364 0.0032593189 0.05449422
000010 56 4e 4f 3d 61 58 75 3c 0c 06 c2 3c 7e 56 51 bc
       0.050611816 0.014974684 0.023684524 -0.012776969
000020 aa 62 0b bd f1 d8 03 bb b4 c5 e8 bc af da 8e bc
       -0.03402964 -0.002011832 -0.028414585 -0.01743826
000030 4f e6 35 bd 07 75 9a 3c 6b 54 66 3c 55 b8 ba 3c
       -0.044409093 0.018854631 0.014058213 0.022792974
000040 25 d4 ff 3b 0b 7e 0e 3d c8 66 bf 3c 04 6c 81 3a
       0.007807272 0.034788173 0.02336444 0.000987411
000050 b7 81 7e 3a f0 e1 1b bc 85 bd 28 bd ef f4 97 3c
       0.000970866 -0.009514317 -0.041196365 0.01854941
000060 c3 5e fd 3b a6 c3 0c 3d 55 54 66 bb f1 bc 11 bd
       0.0077322437 0.034366272 -0.003514548 -0.03558058
000070 7d 0f e6 bc 63 63 91 bc 6d ee 1b bd e9 e0 02 bc
       -0.028083557 -0.017747587 -0.038069177 -0.007988193
000080 76 43 1f bd 93 40 70 3c 5d 5c 36 bc 50 81 23 3d
       -0.038882695 0.014663833 -0.01113042 0.039918244
000090 0d 84 13 bc 70 ff 3e bc 60 1d 5a bd 48 f9 51 bd
       -0.009003651 -0.011657581 -0.05325067 -0.051263124
0000a0 45 5f 38 3d db d5 8f 3c 95 0f 80 bc be 8f 15 3d
       0.04501273 0.017558029 -0.01563243 0.036514036
0000b0 b0 7c ee bc 7c 2f f2 3c 81 87 0e 3d 38 77 79 bb
       -0.02911219 0.029563658 0.034797195 -0.0038065445
0000c0 61 85 0b ba ed d8 20 3d 78 fb a2 bc 2c 79 2d bc
       -0.0005322304 0.039269377 -0.0198953 -0.010587972
0000d0 3b 04 1a 3d b4 ea 11 bd 16 ab e1 3c 45 3f 37 3c
       0.03760169 -0.03562422 0.0275474 0.011184518
0000e0 9f a8 f4 bc d9 ac 22 3c c6 4c bd 3b 56 da bf 3c
       -0.029865561 0.009928905 0.0057769744 0.02341954
0000f0 62 89 f1 bc 46 ef be 3c 62 06 19 bd 43 1f a7 bc
       -0.029484455 0.023307454 -0.037359603 -0.020400649
000100 5b 4e 7b 3b 2b 9f d7 bc b4 9a 0f bd 1b 43 0e 3c
       0.0038346264 -0.026321014 -0.035059646 0.008682991
000110 3e 64 4c bd be 3c 62 ba 3e 7e 13 bd a4 5d 3b 3d
       -0.049900286 -0.0008630267 -0.036009066 0.0457436
000120 c8 82 dd bc f8 cb 16 3d 25 1d 17 bd df cb 35 bd
       -0.0270399 0.036815614 -0.03689303 -0.04438388
000130 95 6b 31 bd 01 54 ee 3c 97 99 39 bd 6f 92 24 bc
       -0.04331549 0.02909279 -0.04531249 -0.010044678
000140 49 ee 1a 3d c8 dc 12 bd 09 f5 ec bc 17 98 e1 ba
       0.037824903 -0.035855085 -0.028925436 -0.0017211464
000150 c0 d1 5f 3d f3 33 5b bd ff f9 12 3d 89 ec 35 bd
       0.054643393 -0.05351634 0.035882946 -0.04441503
000160 07 66 dc 39 5a a1 97 3c db b8 8c 3c 76 25 e8 bc
       0.00042037686 0.018509556 0.01717799 -0.028338175
000170 d6 61 36 bd 83 5a 36 3d 15 87 54 bd c1 ed 90 bc
       -0.044526897 0.044519912 -0.051886637 -0.017691495
000180 c0 06 10 3d 15 36 30 bd 1a 98 0c 3d 78 bc 24 3d
       0.035162687 -0.043020327 0.034324743 0.0402188
000190 8e f0 b6 3c 59 e9 ae bb e1 62 29 bd c6 29 25 bd
       0.022331502 -0.005337876 -0.041354064 -0.04032304
0001a0 a8 af 35 3d 8c 79 e9 bc 21 a6 11 bd ec 51 56 bc
       0.044356972 -0.02850034 -0.035558823 -0.013081055
0001b0 f4 21 6c bd 54 65 2e bd ac d1 00 bd 6a 61 34 3d
       -0.057649568 -0.042577103 -0.03144996 0.044038214
0001c0 3a 2c 1a 3d ca 57 06 bd ce ac 8c 3c c5 ba 3e 3d
       0.037639834 -0.032798566 0.017172243 0.046564836
0001d0 db 30 8a bb 9f ce 4c 3d 79 d7 74 bc 20 53 47 bc
       -0.00421725 0.050001737 -0.014943951 -0.012165815
0001e0 67 f0 83 bc 55 5e 8e 3b 1d 78 03 3d f2 59 83 3c
       -0.016105844 0.0043447413 0.03209697 0.0160341
0001f0 cd 00 23 3d 7f e1 3a 3d 17 2e 00 bd 2d 6f 48 bd
       0.039795686 0.045625206 -0.031293955 -0.04893415

fc_2.weight f4 [64, 128]
000000 0f ff 59 3c 6f 99 96 3d ea 09 8c 3d 93 3c a1 3d
       0.01330544 0.07353484 0.068378285 0.07872882
000010 c3 96 bc 3b 3e 44 8e bb 79 2e 26 3d 6e f0 09 bd
       0.005755277 -0.004341631 0.040571664 -0.033676557
000020 d5 69 17 3d ab cc 7e 3d 8f 85 5a 3d 3f 7f 9b bc
       0.036966164 0.062206905 0.053350028 -0.018981574
000030 b5 fb 9d 3d 65 5a a1 3d 95 e1 71 3c 07 8d b0 bd
       0.07714025 0.078785695 0.014763256 -0.08620649
000040 eb d0 10 3b 19 12 a0 3d b7 72 1d 3d d3 37 bf bb
       0.002209718 0.07815952 0.03843948 -0.005835512
000050 97 ae 8e bd cb 46 c3 3c 31 e5 be bc 18 68 7d 3d
       -0.06966894 0.023837468 -0.023302646 0.06186685
000060 9f 6d 17 3d a9 5d 5d 3c ab 0b da 3c a9 61 8b 3d
       0.036969777 0.0135111 0.026616892 0.068057366
000070 68 e3 39 bd 48 d7 ac 3c 2c 4a 6a bd 22 6b 1c bd
       -0.045382887 0.021098748 -0.057199642 -0.038188107
000080 c1 b1 ca 3d c5 8d 4d bd 6b fe 8b b9 e3 f0 4a bd
       0.09897185 -0.05018403 -0.00026701702 -0.049546134
000090 4a 02 df 3c a6 e1 3d bc a9 33 15 bd 17 a0 8c bd
       0.027222771 -0.011589443 -0.03642622 -0.06866472
0000a0 32 15 83 3d ac 22 2a 38 82 d6 51 3d c0 7a 1e bb
       0.06400527 4.056345e-05 0.05122996 -0.0024182051
0000b0 be 97 b0 bc cb ba 85 3d 34 f8 6d 3d d0 8d 85 3c
       -0.021556731 0.065297686 0.058098033 0.016302973
0000c0 8e 27 4c bd c4 7a d3 ba a9 fd 59 bd 2d 30 8c 3d
       -0.04984241 -0.001613461 -0.053220425 0.06845126
0000d0 d6 bc bc bd 3c e6 9a bd a9 c0 8c 3d cb c7 39 bd
       -0.09215705 -0.07563445 0.068726845 -0.045356553
0000e0 af de 1d bb 32 79 90 3d 6a 82 17 bd b2 46 9b bd
       -0.0024089029 0.07054366 -0.036989607 -0.075818434
0000f0 50 b7 64 3d 6d ec 00 3d 28 a4 95 3d 42 52 70 3d
       0.055838883 0.031475473 0.07306701 0.058672197
000100 e7 03 06 3c 38 00 b3 bd 34 88 e6 3b ad 01 5d 3d
       0.008179641 -0.08740276 0.0070352796 0.053956676
000110 c7 4c 74 bd 1c 0f 92 bd 34 91 d3 3c b7 8b 18 3d
       -0.059643533 -0.07131788 0.025826074 0.037242617
000120 69 63 bc 3d ac 91 5f 3c 62 00 c3 3c 6a 70 82 bc
       0.091986485 0.013645571 0.023803893 -0.015922744
000130 d0 fb 96 3d 86 15 a7 bc 29 07 5c bc 72 2c 09 3c
       0.07372248 -0.020396005 -0.0134294415 0.008372413
000140 20 eb a0 3d 9f 58 0a 3d 9e 1f 3d 3d f5 8d 3b bc
       0.078573465 0.033775922 0.04617273 -0.011447419
000150 11 09 6a 3c c0 59 a4 bd 56 fb c1 3d c5 65 94 3d
       0.014284388 -0.08024931 0.09471767 0.072459735
000160 21 34 c3 bd e4 3a 85 bb 29 66 89 bc 6d 4d 4e bd
       -0.09531427 -0.004065858 -0.016772347 -0.050366808
000170 45 40 4a 3d 9a 40 50 3c 25 97 cd bd 41 5e 82 3d
       0.0493777 0.012710715 -0.10038594 0.06365634
000180 52 92 81 3d 96 db 93 bd 98 c8 e8 3c 3f 07 aa bd
       0.063267365 -0.07219617 0.028415963 -0.08302163
000190 df 10 9d 3d 0a 86 37 bd 97 3e 8f bd 9c 05 af 3d
       0.076692335 -0.044805564 -0.0699436 0.08545992
0001a0 0d a3 91 3d b3 4c 8c bc 27 d3 2c 3d fc fa e9 bb
       0.071111776 -0.017126417 0.042193558 -0.0071405154
0001b0 95 23 99 3c 5c 72 b9 3c 5a 6f 2f 3d e3 39 cd bb
       0.018693725 0.022637539 0.042830803 -0.006263004
0001c0 be fb 9a bc 90 90 b4 bb b4 be 12 bd b9 2d 9a bc
       -0.018918868 -0.0055103973 -0.0358264 -0.01882063
0001d0 c4 40 49 3c d7 6a 7a 3d 29 69 a1 3c 4d 74 49 3d
       0.012283508 0.061137047 0.019703465 0.04918318
0001e0 e0 34 75 3c 48 02 4b bd b9 e0 9e bd 4f 73 9b bc
       0.01496622 -0.049562722 -0.07757706 -0.018975882
0001f0 32 a6 b5 bd 2c fc 3d bd 3d 82 a3 3d da 75 b2 bd
       -0.0886959 -0.046383068 0.07983825 -0.08713885
000200 b7 e4 7e 3d bf 9f 08 bd 83 15 39 3d 29 a9 bb 3c
       0.06222984 -0.03335547 0.04518653 0.02290781
000210 f0 69 ff bc 17 4e 87 bc 00 1b 7d bd 74 79 9d bd
       -0.031178445 -0.016516728 -0.061793327 -0.07689181
000220 4f e0 1a bd 26 41 6f 3d 0b 99 8a bc 58 ae cb ba
       -0.037811574 0.05841174 -0.01691868 -0.0015539629
000230 e3 13 35 3d ba 5a 88 bd 97 b8 a7 3d f3 4d e3 bb
       0.04420842 -0.0665793 0.081895046 -0.0069367825
000240 e9 6d cd 3c d3 f9 94 bb a3 1d 24 bd ce 7a c5 bc
       0.025076823 -0.004546383 -0.040067326 -0.02410641
000250 39 45 6a bd ee 9c 38 3d 21 77 ed 3d 93 84 88 3d
       -0.057194922 0.045071535 0.11594988 0.066659115
000260 6c 19 6d 3b cd fb 46 3d 3a a8 bf 3d c9 37 63 bd
       0.0036178483 0.04857998 0.093582585 -0.055473123
000270 a5 17 b6 bc 90 ca 55 bd f6 67 0c bc 19 41 c0 3d
       -0.022228071 -0.05219513 -0.008569708 0.093874164
000280 40 93 33 3d 4c ec d1 bb 72 da 96 bd b7 b9 79 3d
       0.0438416 -0.0064063426 -0.07365884 0.060968127
000290 bc 39 ae bd 25 f9 2c 3d 37 e1 8e ba eb ef 81 3d
       -0.08507106 0.04222979 -0.001090086 0.06344589
0002a0 64 e1 c4 3d 40 3b 25 3d 56 c7 25 bd 91 e5 03 3d
       0.09613302 0.04033971 -0.040473305 0.032201353
0002b0 a4 3f 36 bc f4 bc c0 bc 08 53 89 bd 7a 1d 3a bd
       -0.011123572 -0.0235276 -0.0670529 -0.045438267
0002c0 30 9c 3f 3c 11 4b a3 bd c3 17 90 3d 66 81 f4 bc
       0.011694953 -0.07973302 0.07035782 -0.029846858
0002d0 f0 f3 0b bd db 80 85 bd 50 b2 de 3c 05 5e 77 3d
       -0.034168184 -0.06518718 0.027184635 0.0603924
0002e0 f3 5a 88 3d da 66 c7 3d 60 ea 90 3d 1f 9f 33 3d
       0.06657972 0.09736414 0.070759535 0.04385292
0002f0 c0 0c 89 3d 0a 9c 81 bd 56 11 33 bd f8 a9 4f bd
       0.06691885 -0.0632859 -0.043717705 -0.050699204
000300 71 a9 e3 3d d3 f1 51 bc 78 16 70 3d c2 23 fd bc
       0.11116303 -0.012814003 0.058615178 -0.03090084
000310 59 2b aa bd 44 b4 5a 3d cb de 93 bd ec 94 9b bd
       -0.08309049 0.05339457 -0.07220229 -0.07596764
000320 8d 1c 07 bc fc d2 bc bd dc 98 ab 3d 77 72 81 3d
       -0.008246553 -0.092199296 0.08378765 0.063206606
000330 ee e4 93 bb 22 a9 b1 3b d6 20 d8 3d 59 05 4b bd
       -0.0045133745 0.0054217735 0.10553138 -0.049565647
000340 a3 0a 22 bd 38 78 08 3d 8a 40 92 3d 30 cf 7d bc
       -0.039560925 0.033317775 0.07141216 -0.015491292
000350 f2 e7 aa bd 73 97 2c 3d 4c b7 9b 3c 18 ec 4b 3d
       -0.08345021 0.04213662 0.019008301 0.049785703
000360 9b c4 95 bd 15 e1 1d bd d3 42 0a 3d 15 c4 92 3d
       -0.0731289 -0.038544733 0.033755135 0.07166306
000370 49 3c 11 bd fa 44 ac bd 1b 94 a8 bd 89 2a 30 3d
       -0.035457883 -0.08411594 -0.08231374 0.043009315
000380 f5 66 99 3d 42 2f b3 3d 8c 94 85 3d db 22 89 3d
       0.074903406 0.08749248 0.06522474 0.06696101
000390 9c 0c a2 bc 2b 24 9e bc 4d 38 ea bc 43 f1 ea 3d
       -0.019781403 -0.019304356 -0.0285913 0.11471798
0003a0 8f 5c 4e 3d 73 01 ac bd 2e fb 46 3d 9a b3 59 bc
       0.05038124 -0.08398714 0.048579387 -0.013287449
0003b0 1f c6 92 3d eb e5 39 3c 01 a3 68 3b 43 87 25 3d
       0.07166695 0.011346321 0.0035497549 0.0404122
0003c0 4b f5 ad bd b4 02 90 3d 62 58 94 bd a3 ad 88 3a
       -0.084940515 0.070317656 -0.0724342 0.0010427724
0003d0 66 49 8c bc ed ef 8c bd b7 4b 8d bd 1e 5e 37 bc
       -0.017124843 -0.068817 -0.06899207 -0.011191873
0003e0 55 de 60 bd 4c 6d 8b bc 9a 95 a0 bd 6b d8 8d bd
       -0.054899532 -0.01701989 -0.07841034 -0.06926044
0003f0 24 89 63 3c aa cf 1a 3d fc 47 8b bd 34 9a 56 3d
       0.013887677 0.0377957 -0.06800839 0.052393153

fc_2.bias f4 [64]
000000 f1 d6 7c bc b5 33 97 3c bd bb 02 3d 71 8c e9 3c
       -0.015432105 0.018457273 0.031917322 0.02850935
000010 0a 25 47 3d d2 6f b3 3d 45 ad 9b 3a 98 b6 c6 3d
       0.048619308 0.087615624 0.00118772 0.09702796
000020 5a 54 e0 3c bf 81 d2 bc bd 95 c6 3d 74 70 a5 bd
       0.027383972 -0.025696633 0.09696529 -0.08078089
000030 72 f4 46 3d 58 2d bc bc 82 e3 b5 bd c7 62 c4 bd
       0.048572965 -0.02297084 -0.08881284 -0.09589153
000040 32 ee 56 bb 99 8c b6 bd ba f3 f5 3c 07 12 a1 3d
       -0.0032795784 -0.089135356 0.030023444 0.078647666
000050 08 ae 3c 3a f3 0c 02 3e e7 cd 49 bd 5b 54 e9 bc
       0.00071975635 0.12700252 -0.04926863 -0.028482607
000060 b9 c9 c1 3d ae 63 d6 3d 95 60 a7 3d 75 9f ae 3c
       0.09462304 0.10468231 0.081727184 0.02131627
000070 6b aa 8e bd 4d 88 b4 bd d8 45 07 3c 00 e9 20 bc
       -0.069660984 -0.0881506 0.008256398 -0.0098211765
000080 c2 35 f5 bc 1b c8 4a 3d ce 86 80 bd 58 fe 53 3c
       -0.02993286 0.04950724 -0.06275712 0.012939058
000090 68 6c 8c bc ba a7 73 bd 2d 6c 05 3d a8 17 10 bb
       -0.017141536 -0.05948613 0.032573868 -0.0021986756
0000a0 d7 d5 87 bb 25 0c 14 3d 03 5d 64 bd 37 09 af bc
       -0.0041453647 0.036144394 -0.055752765 -0.021366699
0000b0 05 34 4b bd 2d 9f 1f 3d d5 f8 ee bc a2 40 59 3d
       -0.049610157 0.03897016 -0.029171387 0.053040154
0000c0 04 4a b9 bb 8d 68 2f 3b 22 73 ee 3d 5e 32 04 3d
       -0.0056545753 0.0026765198 0.116430536 0.032274596
0000d0 30 ca 6a 3d 1c 71 ba 3d db 69 e8 bc b6 fd f1 ba
       0.057321727 0.09103605 -0.028370788 -0.0018462453
0000e0 ba 5e 32 bd 67 86 b3 3d ae 08 e7 39 61 4c c4 3d
       -0.04354737 0.087658696 0.0004406622 0.095848806
0000f0 ad ff 23 3d bb 68 0f bd aa ee 59 3d 74 b2 82 bd
       0.040038753 -0.035011988 0.053206123 -0.063816935

fc_3.weight f4 [10, 64]
000000 8e 40 0e 3d 4d af 53 3e 2f bb 95 bd 41 03 11 be
       0.034729533 0.2067234 -0.07311093 -0.14161398
000010 6b 6d 00 be 43 8a c2 3d e1 0b ca 3d 4c b0 70 bd
       -0.1254174 0.094990276 0.09865547 -0.05876188
000020 8d c0 3a 3e bf df 1a be 14 82 e9 bd 0a 01 16 3e
       0.18237515 -0.15124415 -0.114017636 0.14648834
000030 dc e9 22 3e be 1c 9e bc 9b 2c ed 3d 05 56 c5 bc
       0.15909523 -0.019300815 0.115807734 -0.024088869
000040 75 b8 13 be 5d a2 6c 3d 22 49 27 3d c8 b4 1f bd
       -0.14425834 0.05777203 0.04084123 -0.038990766
000050 01 c4 13 3e 20 ca 18 bd 1e e8 d4 3d 59 4c 80 3d
       0.14430238 -0.037302136 0.10395835 0.06264562
000060 f9 43 a9 bd 1a a5 55 bd 39 ab 83 bd 1b 2b 1c be
       -0.08264918 -0.052159406 -0.064291425 -0.15250818
000070 b7 0a 7f 3b 56 b4 d4 bc e6 04 46 3e 8d 14 2d 3d
       0.0038916299 -0.025964897 0.19337806 0.042255927
000080 30 13 65 3e aa 89 37 3d 2b 47 83 3d 8f 7d 8a bd
       0.223706 0.04480902 0.064100586 -0.0676223
000090 0f 9e fd bd 20 22 6c bd 6a d9 60 3d b7 20 28 bd
       -0.12383663 -0.05764973 0.054894842 -0.041046824
0000a0 fa 10 23 3e a4 8c 78 3e 87 d4 f9 3d b0 fb 47 3e
       0.15924445 0.242724 0.121987395 0.19529605
0000b0 a5 d3 36 bd ef e3 d4 3d 31 80 df 3c 66 cb 7c 3d
       -0.044635434 0.103950374 0.027282806 0.061717413
0000c0 3d a8 70 3d 8a 5a f7 3d b9 54 be be e4 3a e6 bd
       0.058754195 0.12077816 -0.37174013 -0.11241701
0000d0 c9 06 56 3c ed fc 99 bd cf 45 7b 3b 18 22 12 3e
       0.013063141 -0.07518945 0.003834117 0.14270818
0000e0 3a 78 48 3d 25 f4 1d be 08 87 01 3e d0 9b 15 3d
       0.048942782 -0.15425165 0.12649167 0.036525548
0000f0 a4 99 c9 3d 33 20 60 3d 36 2d c9 3d 0a b8 04 3c
       0.09843758 0.054718208 0.098230764 0.008100519
000100 37 09 57 bd 3a 17 f8 bd ac 74 73 be 5c cc 8d bd
       -0.052499022 -0.12113805 -0.23774976 -0.06923744
000110 8a f4 3e 3c 7a 8a 08 3e 44 fc 47 3e d0 e0 ca bd
       0.011654982 0.13334075 0.19529825 -0.09906161
000120 50 68 f4 bd f1 47 6a 3e 76 e5 d5 bc 7b e3 60 3e
       -0.119339585 0.22879006 -0.026110392 0.21961777
000130 3d ec 00 be 00 9f 03 3e 87 63 07 be d4 3d 64 3e
       -0.12590118 0.12853622 -0.1322156 0.2228921
000140 f0 d3 fc bd cd d9 47 3e 6b da 37 be d6 a2 04 be
       -0.12345111 0.19516678 -0.17954414 -0.12952742
000150 5e 2f 2f bd 33 09 e2 bb 95 5d c1 3d d4 56 5d 3d
       -0.042769782 -0.0068980693 0.094416775 0.054037884
000160 1f 91 0a 3d 48 1d 4c bd 12 df 98 3c 0c c3 a0 3c
       0.033829805 -0.049832612 0.018661056 0.019624256
000170 3d b0 37 bc 73 39 09 3e 57 63 1f be 08 b7 0c 3c
       -0.011211452 0.13400821 -0.15565239 0.00858856
000180 04 3b 0e be 25 88 c2 3d 0b 4b b7 bd c4 05 41 bc
       -0.138897 0.09498624 -0.0894986 -0.01178116
000190 23 af da 3d 95 ad 04 bd a8 fe 80 be 50 89 d1 bd
       0.10677936 -0.032392103 -0.25194287 -0.102312684
0001a0 11 e4 5e 3d 36 b6 96 3d 78 08 cf 3d 94 2c 2d be
       0.05441672 0.07358973 0.10109037 -0.16911536
0001b0 80 4a e5 bc 8c 75 e3 3c eb 62 6c be 76 e2 85 3e
       -0.027989626 0.027766012 -0.23084609 0.26149338
0001c0 2e 35 9a bd ab 24 84 be 7e 2b 47 3e a2 eb e4 bd
       -0.075296745 -0.25809225 0.19450185 -0.11177756
0001d0 1c 36 4a 3d 50 e3 cd bd e7 d5 a3 bd 66 79 3c be
       0.04936801 -0.10053122 -0.07999783 -0.18405685
0001e0 06 29 be bd 44 a3 e8 3c 5a 77 2f be 0a 00 2c 3e
       -0.09285168 0.028398164 -0.17135373 0.1679689
0001f0 98 fb da bd da 2e 74 3e 0b 31 0a 3e fb e4 9f be
       -0.10692519 0.23845997 0.13495271 -0.31229386
000200 0e f4 fc 3d 6b d5 71 3d b9 a4 28 3e 82 13 1a be
       0.12351237 0.05904142 0.16469087 -0.15046504
000210 90 f4 24 3e eb fd a1 3d 20 bf d0 bd 27 0f 68 3d
       0.16108918 0.07909759 -0.10192704 0.056655075
000220 09 fb ac 3c 35 c2 38 be fd ca b6 3d 37 b0 e0 3d
       0.021115797 -0.18042834 0.08925436 0.1097111
000230 ed 98 54 bd ea 5f f9 3c 8c 78 28 3e bd 99 4f be
       -0.051903654 0.030441243 0.16452235 -0.2027349
000240 8b 29 ac bc e2 d2 f3 3d 36 cc 68 3d 1f b4 12 3d
       -0.021015903 0.11905457 0.056835376 0.035816308
000250 cb 16 bf 3b 56 ea e8 3c af 29 22 3e db d6 f8 bd
       0.0058315746 0.028432053 0.15836214 -0.121503554
000260 e9 7a 8d 3d 97 cd ad 3d ca b0 4e 3d f1 c3 68 bc
       0.06908209 0.08486479 0.050461568 -0.014206872
000270 c1 0e 99 3d bc c8 79 3d fc 7b 0a 3e 34 da 1f be
       0.07473517 0.06098245 0.13523859 -0.15610582
000280 13 df 51 bd 0f 7d f5 bb b4 5e 2b be 51 3f 03 3e
       -0.05123813 -0.007491715 -0.16735345 0.12817122
000290 24 9a 10 3d 68 f7 e3 3d e6 93 ca 3d 66 9b ec 3d
       0.03530325 0.11131173 0.09891491 0.115530774
0002a0 75 60 1d 3e 64 90 e3 3d ff 62 06 3e d7 fb 94 3b
       0.15368827 0.11111525 0.13123702 0.004546623
0002b0 fe 6d 1a be 27 b5 92 bd 6c 9e 3b 3d e9 18 37 3e
       -0.15081021 -0.07163458 0.04580538 0.17880596
0002c0 7a 87 97 3c 80 58 e3 3d 6c 90 1c 3e 0d d3 3c 3e
       0.018497217 0.111008644 0.15289468 0.18439884
0002d0 cf 60 12 be 5f fc 65 bd 48 0c b6 3d 7b ae 2f bd
       -0.14294742 -0.056148883 0.08889061 -0.042891007
0002e0 6d 88 f1 3d f8 23 84 3d c8 f3 f6 bd e3 3b 86 bd
       0.11793599 0.06452173 -0.12058216 -0.06554391
0002f0 3f c9 f3 bd 5c 9b cd 3d 77 70 d7 bd db 8b a7 3d
       -0.11903619 0.10039398 -0.10519498 0.08180972
000300 08 f2 aa 3d b1 b6 46 3d 26 6c 14 3e e3 14 9d 3d
       0.08346945 0.04851407 0.1449438 0.076699995
000310 30 2f aa bd 01 8a 9c 3c aa 65 36 bd 60 58 2b bd
       -0.083097816 0.019108774 -0.04453055 -0.041832328
000320 9d b6 35 be 06 ef 3c b9 77 31 fe bc 21 7f 0e 3e
       -0.17745443 -0.0001801812 -0.031029446 0.13915683
000330 4c f3 43 be 67 13 16 3e 31 af 07 3e 65 a6 df bc
       -0.19135779 0.14655839 0.13250424 -0.027301023
000340 b5 97 12 3e 64 78 6a 3d 94 d2 e0 3d 99 b5 78 bd
       0.14315684 0.05724372 0.109776646 -0.06072006
000350 d8 6c c0 3b d0 d1 13 3e f1 d9 e0 3d 42 5e 3f bd
       0.00587235 0.14435506 0.10979069 -0.04672075
000360 cf d8 26 3b ed 40 1f ba 9c 74 33 be f9 e3 3f 3c
       0.0025458818 -0.00060750433 -0.17524952 0.011712068
000370 92 67 5c bc 81 29 64 bc 19 9a 54 3d 3e 8c 65 3d
       -0.013452427 -0.013925911 0.05190477 0.05604195
000380 77 28 1c be 7e 04 c5 3d 0d c7 2f be 8d e0 e1 bd
       -0.15249811 0.096199974 -0.17165776 -0.11029158
000390 a8 e7 0a be 7c 19 4c 3d ca 01 ef 3d 01 b0 66 bd
       -0.13564932 0.04982899 0.11670263 -0.056320194
0003a0 0c df bc 3d 23 42 cb bd 54 a9 fa ba 2e 09 b7 bd
       0.0922223 -0.09924724 -0.001912395 -0.08937298
0003b0 87 82 a2 bd 38 b7 97 bd e0 4c 52 3e ab 68 e5 3c
       -0.07935052 -0.07407993 0.20537138 0.028004011
0003c0 1c 69 3f 3e a4 67 85 3c 54 e3 92 3d 69 d6 d8 3d
       0.1869244 0.016284771 0.07172266 0.105877705
0003d0 24 7c 68 3d 60 d1 63 3e cf e6 88 3d 80 3b 16 3d
       0.056759015 0.22247839 0.06684648 0.036677837
0003e0 ec 30 70 3d 00 ed a2 3d 89 06 af bd d3 b5 68 be
       0.058640406 0.079553604 -0.08546168 -0.2272561
0003f0 12 3d 2a 3e 75 81 27 be 0d 7f 88 bd b4 f2 2d 3e
       0.16624859 -0.16357978 -0.06664858 0.16987115

fc_3.bias f4 [10]
000000 b6 02 2c be d3 be d1 bd f6 f5 42 3e 3e 17 87 bc
       -0.16797909 -0.10241475 0.19039139 -0.016490575
000010 2d 6a 14 be 9f e2 16 be 5f a6 22 be 6c 01 8d 3c
       -0.14493628 -0.14734887 -0.15883778 0.017212592
000020 06 d9 5d 3e 0c 96 84 bb
       0.21664819 -0.0040462073
