Computer_Vision/Lesson_2/data/conv.onnx (onnx, 441050 bytes, 13 tensors)

depthwise1.weight f4 [1, 1, 3, 3]
00000000: ddbc 8bbe 3960 d33d b0a5 c13e 2ff4 9abe
00000010: 69c6 ad3e 67bd 513f c377 3f3f 623c 0a3f
00000020: 8b12 933d
-0.2729253 0.103210874 0.37821722 -0.30264422 0.33940437 0.8192963 0.74792117 0.53998387
0.07181271

pointwise1.weight f4 [8, 1, 1, 1]
00000000: df9e 54bf 478c f93d 7805 51bf 0875 c2bf
00000010: ff10 67bf c572 c9be ad41 43bf 68d9 8a3f
-0.8305492 0.12184959 -0.8164897 -1.5191965 -0.9026031 -0.39345375 -0.7627209 1.0847597

pointwise1.bias f4 [8]
00000000: 5c5b 33bf 58fc 7e3f b6d3 57bd 5797 b53d
00000010: 488b 45bf 8818 79bf 3ecf 0c3f 4066 993f
-0.7006128 0.99603796 -0.052692138 0.088667564 -0.7716565 -0.97303057 0.55003726 1.1984329

depthwise2.weight f4 [8, 1, 3, 3]
00000000: 53e1 3abd 5e03 aa3d 6aa1 29be 3c07 5abe
00000010: 4cda ee3d 04e7 363e 9fca e8bd 4377 fbbd
00000020: 2772 133e d9db 7c3e 2355 023f cd91 ba3e
00000030: 93d5 dc3e 519a 433d 84bd 9d3e 2ebf dd3e
00000040: dce5 b2bd 2b40 cc3d 98e7 ce3e ba1f eb3d
00000050: c391 c23d b3cb 1e3e 1588 19be 3dab afbd
00000060: 74af 89bd 5c98 67be e5d5 f43e 7ae1 213f
00000070: ae7b a93e 57f5 00bf cb64 153f 01af 773e
00000080: 5f5c 32be 00de c2be aa99 903e fdcb 093f
00000090: e347 373e 41df 873e 15e9 503e 5c87 87be
000000a0: 0704 b6bd 1043 2dbe 59e6 8fbe 7336 debc
000000b0: a232 a83e bc88 a43e bcd4 463e 8a7a 6e3e
000000c0: 7f7a 663e 1267 1cbe e1d5 eebd d02a 91be
000000d0: 1743 0fbd c5dd 373e 07ae b3be 48e1 cbbe
000000e0: 2fe5 60be d21a b0be 0169 b2bd 696c 3bbe
000000f0: d48b 133e 649c 56be 3c5c 05be f1c8 b83e
00000100: 7628 01bf 7eab 09bf 545f 04bf 246e 06bf
00000110: 2001 29bf 3ea8 0dbf c252 27bf f5d3 afbe
-0.045625042 0.083014235 -0.16565481 -0.21291822 0.116627306 0.17861563 -0.11366772 -0.12278607
0.14399014 0.2469324 0.5091116 0.36439362 0.43131694 0.04775459 0.3080865 0.4330992
-0.087352484 0.099731766 0.40411067 0.11480661 0.09500458 0.15507393 -0.14993317 -0.08577583
-0.06722918 -0.22616714 0.4781944 0.63234675 0.33102173 -0.5037436 0.5835692 0.24187852
-0.1741805 -0.38059998 0.28242236 0.53826886 0.17898516 0.26537517 0.20401414 -0.26470459
-0.08887487 -0.16920114 -0.2810543 -0.027125573 0.3285113 0.3213557 0.19417089 0.23288932
0.22507666 -0.15273693 -0.11661888 -0.28352976 -0.03497609 0.17955692 -0.3509371 -0.39820313
-0.21962427 -0.34395462 -0.08711434 -0.18303074 0.14408809 -0.20958096 -0.13023466 0.36090806
-0.50452363 -0.537773 -0.5170796 -0.5251181 -0.6601734 -0.5533484 -0.65360653 -0.34341398

depthwise2.bias f4 [8]
00000000: df5b 873d a7f2 603e 7be5 a2be 9b89 aabe
00000010: a390 d83d 60a2 41be 5d3a 41be 62d1 b63e
0.0660932 0.21967565 -0.31815705 -0.3330811 0.10574462 -0.18909597 -0.1886992 0.3570662

pointwise2.weight f4 [16, 8, 1, 1]
00000000: 41e8 563d ad89 42be af46 17be 0db8 7f3e
00000010: fa9e 1b3e 3ecd ddbb b494 bebe 20fe 4a3d
00000020: 1bfa f5bc 4134 283f 0448 a4be e0ab f4be
00000030: a174 e7bd 1e2e a3be daaa f83c 0671 1abf
00000040: 690f 9b3e 04cc 79be 22f9 c03e a279 e23e
00000050: dd82 a2be 52ee a53e b146 753e 7889 39be
00000060: 224d 663e ac7e dcbd 0326 02be fc69 1ebd
00000070: 5a0e 53be df33 703e cda2 c23d 9c02 30bb
00000080: 94c5 88be 7987 fc3d 5831 3ebe c447 a0bb
00000090: 154d af3e 19a3 32be 673d 08be bf07 e53e
000000a0: 1b8d 683e 4fa4 fe3e 2fb8 933c a502 593e
000000b0: f85f 33bd 0aca a7bd e77a 80be 4344 413f
000000c0: af0e 47bd f4b7 d93d 97ba 8dbd dd80 b1bd
000000d0: e673 a4be 6fef 103e c165 17be 4ba8 21bf
000000e0: 575c 6dbe abba 473e 65f1 1bbe 77ed e9be
000000f0: 70bd a53c 46df 453e 7764 f93e 00fa 0abe
00000100: 3c83 51be 709d 38bd 20f7 b7be 0d66 3cbf
00000110: bf42 3fbe 6fc3 843e 3d9e cb3d 6117 36be
00000120: 2564 73be d229 9bbd 7052 7fbe ee6a 19bf
00000130: 16a6 183e dde4 303e 8718 ba3e 74e8 bcbe
00000140: adc7 bebd 126f d3bd 611a f53d 7cff 023e
00000150: 0226 ac3e 66a2 ca3d eb19 babe e6cb e53e
00000160: ab19 a8be 5921 82be 96fa c13d 08c4 3a3e
00000170: f072 00be 3159 df3d ffed d0bd aaa0 13bf
00000180: cd22 0bbd 7de0 973e fea9 9dbe 0821 01be
00000190: 2201 28bd 451d 07bd 10ac 95be 5693 b63e
000001a0: 4c7f 903e b1a6 6ebe 1f1a 393e 05c5 07bc
000001b0: 149f 153b dd73 45be 2996 403d 67ce 513e
000001c0: 6fe6 43bd 5f38 7e3e 6aaa c3be 4ad2 903d
000001d0: 99f1 593d 4642 27bb f97e f73e a96f 0ebe
000001e0: 49ef 96be 8758 8b3e dfc6 8c3e 42e1 753e
000001f0: db77 373e be08 a0be d625 183e 03e5 b13e
0.05246759 -0.18997832 -0.14773057 0.24972554 0.15197363 -0.0067688515 -0.37222826 0.04955876
-0.030026486 0.65704733 -0.32086194 -0.4778738 -0.11301542 -0.31871122 0.030354906 -0.6032871
0.30285195 -0.24394232 0.37690073 0.44233423 -0.31740466 0.32408386 0.23952748 -0.18118846
0.22490361 -0.10766348 -0.12709813 -0.038675293 -0.20610943 0.23457287 0.09503708 -0.0026857024
-0.2671324 0.12330527 -0.1857351 -0.0048913676 0.34238496 -0.1744503 -0.13304673 0.44732472
0.22710077 0.49734733 0.018032162 0.21192415 -0.043792695 -0.08192833 -0.25093767 0.75494784
-0.048597988 0.106307894 -0.06920355 -0.08667157 -0.32119673 0.14153837 -0.1478491 -0.6314742
-0.23179756 0.19504802 -0.15228803 -0.45688984 0.020231932 0.19323453 0.4870946 -0.1357193
-0.20460218 -0.04507202 -0.3593073 -0.7359322 -0.18677805 0.25930354 0.09942291 -0.17782356
-0.23768671 -0.07576336 -0.24933791 -0.59928787 0.14907107 0.17274804 0.36346838 -0.36896098
-0.09315429 -0.10323919 0.11967922 0.12792772 0.33622748 0.09894256 -0.363479 0.44882125
-0.32832083 -0.25416067 0.094716236 0.18238842 -0.12543845 0.10905684 -0.10201644 -0.5766703
-0.033968735 0.29663458 -0.30793756 -0.12610257 -0.041016705 -0.032986898 -0.29232836 0.35659283
0.2822212 -0.23305775 0.1807637 -0.008286719 0.0022830414 -0.1928248 0.047018204 0.20488892
-0.04782718 0.24826191 -0.38215953 0.070713595 0.05320892 -0.002552168 0.4833906 -0.13909782
-0.29479435 0.27215979 0.27495477 0.2401171 0.17916815 -0.3125667 0.14858183 0.34745035

pointwise2.bias f4 [16]
00000000: ae86 873e edef 05be 1b13 86be 756a 7cbe
00000010: f962 b93e 9d51 9f3e ff69 14be b0b4 df3c
00000020: df80 703e ac89 72be f6d9 203e af1a da3c
00000030: 3872 643e c9e8 813d 5bd9 0e3e a328 ca3c
0.2646994 -0.13079806 -0.2618645 -0.24649985 0.36208323 0.31116953 -0.1449356 0.027307838
0.2348666 -0.2368533 0.15708145 0.026624052 0.22309196 0.06343228 0.13950102 0.02467758

fc_1.weight f4 [128, 784]
00000000: c43f 4e3c b3c1 ecbc a50a 7cbc 4ff0 81bc
00000010: e48a 12bd af7b 3abc 49b4 fdbc d8e4 2e3c
00000020: 2167 1cbd 0aaa aabc 5a59 ca3c 4291 0dbc
00000030: 7d16 c3bc baa8 94bc 87d8 ac3c c134 53bb
00000040: a53c 803c b91b 053c ccbb 1cbd 5e16 10bd
00000050: 0990 e13c e78b 58bc b822 99bc ee91 a83c
00000060: 313d a33c b59e 2a3d eb36 05bb 2616 e83c
00000070: cfb1 efbc 488c 083c ed40 da3c 48b4 80bb
00000080: b0f1 583c 9dc3 c33c e53f ecbc 7277 82bc
00000090: b8b0 ddbb 1dda e6bc 062c f2ba 15fc 0abd
000000a0: 7bd0 d4bc 5655 23bc f3fb e73c 5ccc dabc
000000b0: bae6 933c 0a1c 8b3c 44ff aa3b 4f11 13bd
000000c0: c250 d73c d7f4 223c adaf b4bb 4322 31be
000000d0: 29aa 58be 1409 e2bd 31aa 95bc e4dc f0bc
000000e0: cc39 233e eb16 a43e 5991 b43e fce0 8c3e
000000f0: 76ae f73d 7fe1 303c 6136 0c3d f733 46bd
00000100: 5ab4 6dbe 97ec c1be acc0 44be deca d93b
00000110: 0d7f c33b 5505 6bbc 1483 0cbe d3a2 d8bc
00000120: 90b4 2f3e 0f7a 363c 1a1c 12bc 381a a33c
00000130: a7f0 09bc 759e 1b3d 63b9 ca3d e201 fdbd
00000140: 1caa a03c 6106 013d a596 dc3c e243 01bc
00000150: d186 78bc 2d1d 0bbe 3cb1 243d 374c b93c
00000160: 7e3d 69bd a40f c2bd 5bbb 8a3b de9a 8cbb
00000170: 9171 cb3d 8539 5abc 74e8 84bc 5a42 15bd
00000180: fa33 30bd 9b68 42bc dc93 cebc 5827 9e3c
00000190: 89ab c03b a791 43bc 225d d9bc 17d4 fe3c
000001a0: 33e5 ddbc 60e8 2bbc f4bd bf3c ef8c 7e3d
000001b0: fe5a bebc dbc5 723c 1501 e13c fb61 0a3d
000001c0: 8d6b 403c 4dfc 013c e508 23bd c68f 0cbc
000001d0: d901 6ebc ca70 c23c f54d a4bc 2130 893b
000001e0: f96e 09bd 2883 333d b8b9 803d 7c3c 423c
000001f0: 92d5 093d d257 84bc c727 dd3a 0505 81bc
00000200: 6e6b 433c 2bb9 d63b abf4 c13c 14a4 54bc
00000210: d095 233c 7d5a cbbc 2128 40bd 2921 06bb
00000220: a6ad afbc 10ca 11bc a974 923c cae8 64bc
00000230: 63af 7bbb b148 c43c 0b66 06bd 01fa 5fbc
00000240: 8029 ba3c 2738 e0bb 31c3 763c 927f 9d3c
00000250: d7a9 7e3c 34db 8e3c d9eb f4bc 3ff7 d3bc
00000260: 11b5 023c fc49 08bc c7ec abbc fbc7 9e3c
00000270: 73a8 433c 821c 3a3c a024 41bb 974e c5bc
00000280: 383e d73c 60d4 0bbb 5e36 383c 4bbd ae3c
00000290: 3e04 d13c 073c ea3c 35b3 5fbc d346 39bb
000002a0: ea73 d83c 2bc7 c3bc f588 883c d5c2 06bd
000002b0: e180 053d 43e1 653c 723a eb3c 5206 c03c
000002c0: 522b 3bbb 4e50 ccbc ed5c a83c e885 8bbc
000002d0: 5efd 71bc 4b85 f0ba 67c8 693c 6b9f 003d
000002e0: 0c3c 1bbc d9e2 9dbc a5dd cd3b cd0d c13c
000002f0: da2c 43bc 0c1c 35bc 44b0 d4bc 6e7a d9bc
00000300: bc55 f6bc eb9b de3c abd1 bbbc 0183 1dbb
00000310: be8b 9d3b fe91 1e3c 25be cfbc d9f9 d9bb
00000320: 7d68 fabc b220 64bc d4c3 edbb 3c6b cf3b
00000330: 1ad9 853c f17a 35bd 78a8 dbbc eb2b 0f3d
00000340: d68f 84bc 8aa3 2e3a 52d9 da3c 0ae9 1dbd
00000350: 7494 56bc 0f45 f43c 3240 3b3c cdd8 853c
00000360: 2a9a 813b a263 ce3c 4953 5bbc 4f4d 18bc
00000370: 4bcc bdbc 96e4 b0bb 300a efbc 56f7 873c
00000380: 9fd8 db3c 7c9f 39bd 2c43 213c 7ff5 203d
00000390: 7e61 af3c 0716 d83c 4733 823c f65c 01bd
000003a0: adae dc39 6632 b43c fead c7ba ad42 3cbd
000003b0: 8f07 07bd a4e5 c03c daaa 9038 6c21 0d3c
000003c0: cf7e 063c faf7 98bb 5fda 59bc 3599 dabb
000003d0: 7383 8abc 7330 bebc 493c 343c 8e64 a9bc
000003e0: 38b3 d03b 5aef 28bc 7572 a2bb 3e5c 0fbb
000003f0: bf58 643c 714c ccbc 051e 4bbc f77e 813c
0.012588445 -0.028900957 -0.015383397 -0.015861658 -0.035776988 -0.0113820275 -0.030969756 0.010674678
-0.03818429 -0.020833034 0.02470081 -0.008640589 -0.023814434 -0.018146861 0.021099342 -0.0032227489
0.015653918 0.008124285 -0.038265035 -0.03517758 0.027534502 -0.013216949 -0.018693313 0.020577397
0.01992664 0.04165526 -0.0020326923 0.028330874 -0.02925959 0.008334227 0.026642287 -0.003927741
0.013241217 0.023896987 -0.028839061 -0.015926097 -0.0067654513 -0.028180176 -0.0018476255 -0.03393181
-0.025978317 -0.009969076 0.028318381 -0.026708774 0.018054355 0.016981144 0.0052184183 -0.03590518
0.026283626 0.00994607 -0.0055141062 -0.17298226 -0.21158661 -0.11036888 -0.01826963 -0.029402204
0.15940017 0.32048735 0.3526714 0.275154 0.12093823 0.01079595 0.034231547 -0.0483894
-0.2321333 -0.37875816 -0.19214123 0.006646498 0.0059660734 -0.014344533 -0.13721877 -0.026444828
0.17158723 0.0111374995 -0.008917833 0.019909963 -0.008419192 0.037992913 0.09898641 -0.12353875
0.019612364 0.031500224 0.026927302 -0.00788972 -0.0151688615 -0.13585348 0.040208086 0.02261935
-0.05694341 -0.094756395 0.0042337603 -0.0042909225 0.099337704 -0.013319378 -0.016224124 -0.03644023
-0.04301832 -0.01186576 -0.02521699 0.01930587 0.0058798236 -0.011936582 -0.026533667 0.031106992
-0.02708683 -0.010492414 0.023406006 0.062146123 -0.023236748 0.01481768 0.027466336 0.033784848
0.011744392 0.007933688 -0.039803404 -0.0085792 -0.014526808 0.023735423 -0.020056704 0.0041866456
-0.033553097 0.043826252 0.06285423 0.011855241 0.033650942 -0.016155157 0.0016872816 -0.015749464
0.011927469 0.0065528355 0.023676237 -0.012978572 0.009984449 -0.024823422 -0.04691327 -0.0020466542
-0.021445107 -0.008898273 0.017877894 -0.013971517 -0.00384041 0.023960443 -0.03281216 -0.013670445
0.022724867 -0.0068426314 0.015061186 0.01922587 0.015543423 0.017438509 -0.029897617 -0.025874732
0.00797774 -0.0083184205 -0.020986928 0.019382467 0.011942017 0.011359336 -0.0029471293 -0.024085326
0.026274785 -0.0021336302 0.011243431 0.021330496 0.025514718 0.028593076 -0.013653566 -0.0028270974
0.02642246 -0.023898682 0.016666869 -0.03290065 0.03259361 0.014030757 0.028714392 0.023440514
-0.0028559756 -0.024940636 0.020552123 -0.017031625 -0.01476988 -0.0018350271 0.014268971 0.031402033
-0.0094747655 -0.019273208 0.0062825256 0.023566151 -0.011912549 -0.01105405 -0.025962956 -0.026547637
-0.030070178 0.027173957 -0.022927126 -0.0024034383 0.0048079183 0.009678362 -0.025359223 -0.0066520986
-0.030567402 -0.013923811 -0.0072560105 0.006329922 0.016338874 -0.0443067 -0.02681373 0.034953993
-0.016181868 0.00066619425 0.026714955 -0.03855232 -0.013096917 0.029818086 0.01142888 0.01633873
0.0039551454 0.025193993 -0.013386556 -0.009295776 -0.023168704 -0.0053983433 -0.029179662 0.016597431
0.026836691 -0.04531811 0.009842675 0.039296623 0.021408793 0.026377691 0.015893592 -0.031582795
0.00042091814 0.021996688 -0.0015234349 -0.045962024 -0.032966193 0.023547001 6.898279e-05 0.008613925
0.008208944 -0.004668233 -0.013296693 -0.0066710957 -0.016908383 -0.023216462 0.011000701 -0.020677831
0.006369021 -0.010310972 -0.004957492 -0.002187505 0.013937174 -0.024938794 -0.012397294 0.015807612

fc_1.bias f4 [128]
00000000: 19a9 cbbc 7237 bf3c 2300 07bd d1ec 00bd
00000010: 200e 533d 695d 2d3d 9793 793c e00b f83c
00000020: e2fa 983b 95d7 393d 85f1 b8bb bc20 8dbc
00000030: 2f6d 01bd 051a 4fbc 3201 3f3d 4998 38bd
00000040: 29fe e73c 9dca e5bc efea 54ba 5941 d9bc
00000050: 513b 913c 9a36 833d c080 f13c 45f0 f0bc
00000060: df8e ed3c 8efd 03bd 94f2 45bc 4ebb 48bb
00000070: c613 163c bcc6 e9bb b01d a33c 72ac 4e3b
00000080: c2e2 743c 76d0 d23c 28f2 d63c f4b4 c53c
00000090: af97 eabc 9f6f f2bc 882f 843c c658 063d
000000a0: e918 0c3c 41b8 9fbc 59cb 86ba fc53 873c
000000b0: b02e 0a3b f6b9 d03c cc9c 84bb e7e4 7c3c
000000c0: d346 7c3c cbfa 12bc 417d ebbc 50f5 55bc
000000d0: 574c be3c 0688 7dbc d6c1 7fbc f7fb bc3c
000000e0: a92e 073d c04b adbb 18d6 d7bc 5da2 353d
000000f0: dd20 8abb 4f0f d8bc 9b11 043d 9c04 013d
00000100: 55c3 16bc b25a f4bc 4f1b 593c 87e2 0bbc
00000110: 84b1 113d db0a f63c 6a40 3bbc 597a 2e3d
00000120: 60d2 80bc 8260 053b 088e bfbc 855e b3bc
00000130: 7878 983b ec5c 233d 5b05 04bb c1f0 253c
00000140: e5fb 153d 5cc4 dbbc 834d 0dbd aad8 09bd
00000150: 8f9c 83ba 2edf 0e3b a68a e63c 3682 f13b
00000160: 5aae b83c d465 88bb 3c28 00bc 3377 aebb
00000170: 8dc0 a43b 7018 37bc 29d2 b93c 99f4 9cbc
00000180: 2704 e93b fa98 a93b 03c2 bdbb a16c 83bc
00000190: 27b9 27bb 3c05 063d a307 02bd a4ea c7bb
000001a0: 49b7 debc 896f 9b3c 6721 283c 0ff8 803b
000001b0: efda f0bb 2503 f33c 6fc6 02bb 6c4b c2bc
000001c0: 5863 2f3d eacf 5d3b 3df4 1bbd a6a2 003d
000001d0: 7e36 be3c 1351 0fbd d736 0b3d a8d8 01bd
000001e0: 0201 bcbc 6bd3 033c 47da 633c e898 98bc
000001f0: d181 953c dfc9 cdbc e11f e03c eae3 f2bc
-0.024860905 0.023341868 -0.032959115 -0.031475846 0.051527143 0.04232541 0.015232942 0.0302791
0.0046685794 0.04537161 -0.0056440257 -0.017227523 -0.031598266 -0.012640481 0.046632 -0.045067105
0.028319435 -0.028050715 -0.0008122166 -0.026520418 0.01772848 0.06406899 0.029480338 -0.029411444
0.02899879 -0.03222423 -0.012081761 -0.003062922 0.009159988 -0.0071342867 0.019911617 0.003153589
0.014946641 0.025734168 0.026238516 0.024134137 -0.028636781 -0.02959424 0.016135946 0.032799505
0.008550861 -0.019497039 -0.0010283991 0.016519539 0.0021084957 0.025479298 -0.004047012 0.015435434
0.015397745 -0.0089709265 -0.02874625 -0.013058975 0.023229761 -0.015474325 -0.015610179 0.023069365
0.033003483 -0.005288571 -0.026347205 0.044344295 -0.0042153434 -0.026374487 0.032243352 0.031498536
-0.009201844 -0.029828403 0.01325114 -0.008537895 0.035569683 0.030034473 -0.011428932 0.04259715
-0.015725315 0.0020351713 -0.023383155 -0.021895656 0.004653033 0.03988354 -0.0020144794 0.010128201
0.03661718 -0.02682703 -0.03449775 -0.033653893 -0.0010041165 0.0021800506 0.028142285 0.0073702587
0.022544075 -0.0041625295 -0.007822093 -0.0053242682 0.0050278367 -0.01117526 0.02268322 -0.019159602
0.0071110907 0.005175707 -0.0057909503 -0.01604301 -0.0025592537 0.032719836 -0.031745564 -0.0061009694
-0.027187007 0.018974083 0.01026187 0.003935821 -0.0073503177 0.029664585 -0.0019954701 -0.023717605
0.04281935 0.003384585 -0.03807472 0.031405114 0.023219343 -0.034989428 0.033987846 -0.03170076
-0.0229497 0.008046011 0.013907022 -0.018627599 0.018250378 -0.025120674 0.027358951 -0.029649694

fc_2.weight f4 [64, 128]
00000000: 166c 8e3c dcaf 9fbd 48b9 09be 728a 3ebe
00000010: 4fa2 fd3d 6052 43bd 4dfd 41bd b98c 983d
00000020: 7c5c 193d 04f6 85bc 9bde aabd ce96 d33c
00000030: 6a7a 923d 67ab efbd 408f 9f3d 77f0 b9bd
00000040: 2e00 aabc ccd2 ea3d dfeb 5bbe d499 3ebd
00000050: 3300 6dbd 0a4f 92bc 560e 413d f28e f03b
00000060: e196 9fbd 04bb 373d 2ab1 8bbd b662 89bd
00000070: bf85 b3bd 3fe7 82bd d0bc f7bd 6128 873d
00000080: cee3 23be 82c6 103d b077 89bd fba5 ec3d
00000090: 0ec3 15bd 9d96 ea3c ac5e 703d 37df 5bbe
000000a0: 337a 2b3e 4455 113c 7169 353c c3bf a53c
000000b0: 0000 373d 9e6a a73c ca40 37bd 309d fb3c
000000c0: b285 9cbd 5ca0 f0bc 77d5 01be 7387 313d
000000d0: 5baa 423d fc0f b53d 37da bd3c 5181 e73b
000000e0: 015d 153e 44c1 723e 354d 993e 41ac d2bd
000000f0: 6806 85bd 74c7 813d e233 8b3d e18c 5c3d
00000100: d17b 353d 61d2 cabc a878 d0bc b7c0 08bd
00000110: f427 bbbd 9fba aebd 2d95 a8bd a4d7 fd3d
00000120: b175 103e 199b 52bd b816 b33d d4c6 643d
00000130: 6a41 533d ade9 a13c 78e5 d53d fd28 0c3e
00000140: af72 b0bd 6cd8 873d 216d b9bd 405c 803c
00000150: 9f4b a73d bac8 95bd 0035 813c 5226 e8bd
00000160: 490b 01be 10e1 1bbe 6e72 56bd 6931 743d
00000170: 79a3 5abe 38e3 8fbc bff5 2d3d 0594 de3d
00000180: 81e4 4bbd 2983 913c a38d 9cbc 9b52 32bd
00000190: e320 633d 94aa 973d e6aa 50bd 61b5 c23c
000001a0: 7694 44be 9d2a cf3d e3ec 11bd e072 683c
000001b0: 9cb1 c13c e57e 943d c936 0cbd 2fbd ca3d
000001c0: ea99 073d ff56 8cbd 55f3 a53d 2d3f 3e3d
000001d0: 6ece d73d eeff e43c d605 333e 0e2e 243e
000001e0: 7fa3 333e 41de 0e3e 3393 8dbc 7435 94bd
000001f0: 93cc 3a3d 950f 07bd 7141 dd3d ad07 7bbb
00000200: 1ba0 3ebd f7b5 523c cd5f 9b3c 8163 babd
00000210: 744b 54bd c51e 35bb 5c4d a6bb ee4c 113d
00000220: 97cf f4bd 2577 ecbd facc c03b 6fd8 d93d
00000230: a31f 9d3c aab6 96bd 41ec f5bd cb65 1f3b
00000240: a23c 5e3d aa1e 92bd 272f 14bd 8492 49bd
00000250: b663 263d fbbc 19bd 71b2 e23d 5a1d dbbd
00000260: 3084 99bd aebe a53c 6d68 ddbb 6b26 fa3b
00000270: 9d4c 43bd fe3f 903b c746 42bb 9202 b2bd
00000280: 8170 0a3d 79e0 85bc 14ce 4abd 656c 6d3d
00000290: 9f1f 96bd 39a1 9bbd b94a 69ba 65e2 a53c
000002a0: 587e a83d 271d a13c e818 36bd 92dc 9a3d
000002b0: 73b7 7f3d fb6f bdbb 4288 0dbd 8dae 6b3a
000002c0: 8cbd 363d fa19 31be 7da9 c1bd 1e57 b7bc
000002d0: e49f ca3d 6ccb 1e3b 0ed6 923d ee6e 1bbd
000002e0: 56b5 933d 8aee dd3c 2ad9 cc3d b3a0 763c
000002f0: 9fef 41bd 490a 293b 8e19 82bd 9432 96bb
00000300: 2a8c 94bd 196e f53d 200e d3bd 872b 12bd
00000310: be42 893a c15d 853d efd0 6e3d 037d 9a3c
00000320: a212 ebbd a5d8 f6bc 29ce 7c3d 73fb 98bc
00000330: 6256 0c3e 0e9b a33d d4c9 043c 65b3 98bd
00000340: 63bb d83c 6985 1b3d 23a9 5ebd b3b4 5bbd
00000350: 4fc1 da3d 3d60 a7bd 8efa 0abe 8102 8cbc
00000360: 619b c7bd f07b b2bc ae9e 033d 8dab f6bd
00000370: da14 d93d 466f e1bc 11f2 91bd b1ad 613d
00000380: 9e9c de3c b0ee d83d 6954 e1bd 1b19 abbc
00000390: 778e 9ebd 75e4 d13b 8747 973d ab95 363d
000003a0: 1726 a43d 5ee8 7cbd 6731 7c3d b29d 9c3d
000003b0: 4ddc 1fbc 258f f5bc b45f 6b3b 7662 893d
000003c0: 269f fa3b cb33 acbd 8cfb 033d bc0c e23b
000003d0: 2619 5ebd 7cfa 01be a043 6fbd 3601 f9bb
000003e0: 2813 f63d acd1 25bd 3c9a 8c3d ab35 473d
000003f0: f836 60bd 1491 983d a696 85bd 2134 053d
0.017385524 -0.077972144 -0.13449585 -0.186075 0.123844735 -0.04768598 -0.047360707 0.07448716
0.037441716 -0.016352661 -0.0834324 0.025828745 0.07152255 -0.11702614 0.07790995 -0.09079068
-0.020752039 0.114659876 -0.21476696 -0.04653342 -0.057861518 -0.017859954 0.047132812 0.007341259
-0.0779245 0.044856086 -0.06820901 -0.06708281 -0.087657444 -0.06391763 -0.1209656 0.065994985
-0.1600487 0.03534556 -0.06712282 0.11555096 -0.03656297 0.028636271 0.058684036 -0.21471868
0.16745834 0.008870427 0.0110725025 0.02023304 0.044677734 0.020436581 -0.044739522 0.030714601
-0.07642688 -0.02937334 -0.12679087 0.043342065 0.047525745 0.088409394 0.023175342 0.0070649763
0.1458626 0.23706537 0.29941717 -0.10286761 -0.064953625 0.06336871 0.06797005 0.05384529
0.044307534 -0.02475852 -0.025448158 -0.033386912 -0.0913848 -0.08531689 -0.08231578 0.12394646
0.14107396 -0.051417444 0.08744568 0.05585368 0.051576056 0.019764746 0.10444158 0.13687511
-0.08615624 0.06633076 -0.09054018 0.015668988 0.081687205 -0.07313676 0.015772343 -0.11335434
-0.12601961 -0.15222573 -0.052355222 0.059617434 -0.21351422 -0.017564401 0.04247069 0.10868076
-0.049778465 0.017762737 -0.019110506 -0.04353581 0.055451285 0.07405582 -0.05094423 0.023768129
-0.19197258 0.1011555 -0.035626303 0.014187545 0.023644261 0.07250766 -0.034231935 0.09899365
0.03310577 -0.06852531 0.081030525 0.046446968 0.1053742 0.027954068 0.17482695 0.16033193
0.17542838 0.1395197 -0.017282104 -0.07236758 0.045605253 -0.032973845 0.108034976 -0.0038304136
-0.046539407 0.012860767 0.01896658 -0.0910101 -0.05182977 -0.0027636748 -0.00507514 0.035473756
-0.11953657 -0.115461625 0.00588381 0.106369846 0.019180125 -0.07359059 -0.120079525 0.0024322148
0.054257043 -0.07134755 -0.03617778 -0.049211994 0.040622436 -0.03753374 0.11069191 -0.10698958
-0.07495916 0.020232525 -0.0067568333 0.0076339743 -0.047680486 0.0044021597 -0.0029644237 -0.086918965
0.0337987 -0.016342388 -0.049512938 0.0579647 -0.0733025 -0.0759911 -0.0008899379 0.020249555
0.08227223 0.019667221 -0.044457346 0.07561602 0.06243081 -0.0057811714 -0.034553774 0.00089905487
0.04461436 -0.17295066 -0.094561554 -0.022380408 0.09893778 0.0024230136 0.07169734 -0.037947588
0.072123215 0.027091283 0.10002358 0.015052962 -0.04734766 0.0025793484 -0.063525304 -0.004583666
-0.07253297 0.1198389 -0.103054285 -0.035686042 0.0010472161 0.06512023 0.058304723 0.018858438
-0.11478163 -0.030132601 0.061720047 -0.018674588 0.13704827 0.07988559 0.00810476 -0.07456092
0.02645654 0.037969027 -0.05436052 -0.053639125 0.10681402 -0.08172653 -0.13572142 -0.017091038
-0.09746433 -0.021787614 0.03213375 -0.120444395 0.1059968 -0.02751888 -0.07126249 0.055097286
0.02717429 0.10592401 -0.11002428 -0.020885995 -0.07742017 0.006405408 0.0738669 0.04457633
0.080150776 -0.06174504 0.06157055 0.076472655 -0.009757114 -0.029975483 0.0035915198 0.06708233
0.0076483665 -0.08408316 0.032222316 0.0068984907 -0.054223202 -0.12693208 -0.0584141 -0.0075990213
0.120153725 -0.04048316 0.06865355 0.048635166 -0.054739922 0.074495465 -0.065228745 0.032520417

fc_2.bias f4 [64]
00000000: bee9 a93d 9a6d e33b 7aa2 b03c 22bf 523d
00000010: b107 1ebd 9e3d 0b3d c144 c63d 6f46 94bd
00000020: f947 443c 5ece 993c 7bcb 583d 87fb e63d
00000030: 1dae 97bd 6fd9 4f3d 584a 7e3d 6e1c 9fbd
00000040: 18e1 f13a 494d d43d 86eb 28bc a36e f43d
00000050: 66c4 8dbd 1218 303c 57d0 ab3d e98a 68bd
00000060: d564 c13d 3839 a6bd 82dd 5d3c a942 74bd
00000070: ee2a 233d 88f5 80bd cb69 5f3d 679c 97bd
00000080: e0dd a73d 66be f039 daa7 513c 5669 febc
00000090: 9931 6dbd ec86 85bc 50ca 053d 27c0 ab3d
000000a0: 8051 9ebd 0d1f 66bd efe4 0b3e 51e3 babc
000000b0: a4f1 803c 0b0c a1bd f867 29bd a302 0a3d
000000c0: 10fe 903d 9db7 883d 9c15 bd3c a45e 22bb
000000d0: b021 1ebd 23e6 69bc e143 4c3d d12f 96bd
000000e0: 1846 d0bd 4b2e 8bbd ea02 bf3d 2d2d 453d
000000f0: a5b3 48bd 6482 89bd 2097 1dbd d78b 57bd
0.08296536 0.0069405558 0.02156185 0.05145181 -0.038581554 0.03399431 0.096810825 -0.07239997
0.01198005 0.018775161 0.05292843 0.11278444 -0.07406256 0.05074447 0.06208262 -0.077690944
0.0018453924 0.103663035 -0.010310059 0.11935165 -0.06922226 0.010747926 0.08389347 -0.0567731
0.0944306 -0.08116382 0.013541581 -0.059633885 0.039835863 -0.06296831 0.05454425 -0.07402878
0.08196616 0.00045918225 0.012796367 -0.031056087 -0.057908628 -0.016299687 0.032663643 0.083862595
-0.07730389 -0.056181956 0.1366155 -0.022813471 0.015740223 -0.07863625 -0.041358918 0.03369392
0.070797086 0.066756465 0.023081593 -0.0024775648 -0.038606346 -0.01427606 0.049869422 -0.07333339
-0.10169619 -0.06795939 0.09326728 0.048138786 -0.048999447 -0.06714323 -0.038474202 -0.052623596

fc_3.weight f4 [10, 64]
00000000: c3f2 5cbe d1c4 503d e9f4 b9bd f04f 3b3d
00000010: 9c3f 513e f869 01be 0a26 903d fbff 343e
00000020: f24b cbbd 183f b73b 10f3 8dbe 1e4f c1bc
00000030: 016c 5abe 03cc 783c d98f 473e ac9f 3d3e
00000040: bf1b 3fbe 8b20 253e abab 75bd 0e94 4ebe
00000050: 6ab6 b43c 8814 8abe 829e ad3e 33c9 53bd
00000060: dadf c03d 5a0a 1ebd 8229 153e 015e e3bd
00000070: 4deb d63e 347f 6a3d 8525 2a3d fb5f 543e
00000080: 0406 213e ee9d 60be 2be4 fd3d 0693 98be
00000090: f6ca a6bd c324 eebd 79e0 21be 75d8 62be
000000a0: cd7c 823e d88a f4bc 2901 76be 47af dabc
000000b0: 11ba 91be 1390 9abd c933 ccbe 3a8d 8bbe
000000c0: 1b28 4abe e888 2c3d fb11 6e3d 0cd2 063d
000000d0: c3cb 4dbe ec22 393e 2df9 9ebc c92f 00bd
000000e0: 3ff4 efbe 7f2e 2ebe 4555 933e cf31 a43e
000000f0: d2bf 0c3d 5e7f 973e 4287 e53d 13eb 0a3e
00000100: 651f a83e cdc7 f5bd c582 01bb 6780 743e
00000110: 0e78 23bd 8b4a 793e 6e76 793e 0493 533d
00000120: 9a84 76be 1236 4ebe a66c 393e 344d 19be
00000130: eace 4e3d 0cf1 aebd 6968 c93d 7827 603e
00000140: 8f6f 4abe e3ee 083e eaf4 78bd 9af8 5a3e
00000150: 3061 43be 5938 89be 517f b5be ad4e 28bc
00000160: 5482 70be f611 bc3c 9242 263e 0cff bb3e
00000170: 38c2 8cbe 9ffe 41be 9310 a2be bde5 76bd
00000180: 6970 f5be 8ee9 67bd adf5 983d db37 323e
00000190: 1e7f 3c3e a7d1 97be 7b42 b73e 17ef 54bc
000001a0: 2b16 92be 69ab a4be 4718 28be 5c82 f8bc
000001b0: 235b 423e 12e0 acbd 04c8 883d 67c7 083d
000001c0: 3a86 60be 2156 dc3d 7079 c4bd ce0a 68bd
000001d0: 7fd3 f6bc e107 20be 964c 39bd 0630 f3bd
000001e0: db19 f9bc a84b ebbc f0b9 0abd 01fa 17be
000001f0: 616c d9bd 8d2d a5bc ec5f 5f3e a411 573e
00000200: ae3d cdbb 8cd3 fb3d 51a3 153e 55f1 94bd
00000210: 4a94 0e3e 91c3 153e 0f56 abbe 7fc9 9dbd
00000220: fc08 5d3d 9db5 69bb 01ac e3bd bc45 6b3e
00000230: 255e 1abe 5929 b9bd 1872 4f3e 17aa 17ba
00000240: 1440 983e cdbe 26bd f819 1c3e 6ba9 483e
00000250: 7fe8 bd3d 6b76 0a3e b9c7 14be 01ae 103d
00000260: 1a2b 8dbd 899a d03d ad4e 2bbe ce6e 9fbe
00000270: ed1f c8ba 0a9d f5bd ac03 a43e 3fe7 133c
00000280: bb08 03bd d4a0 983e 8fb3 c1bc ccca 243e
00000290: 4a2c 3c3e a445 ecbc cc79 d0be 8c2c b5bd
000002a0: 6bdd 333d ad3b 79bd 3de0 bebe 20e1 a03e
000002b0: 7f81 653e 9524 593e 0a0d 7dbe e746 5c3e
000002c0: 3439 44be 7b21 643e 279b c63d 34f7 92bd
000002d0: 9926 99bd 74ac c5bd 6c18 1bbe daa6 e23c
000002e0: 63ab 5bbe ecc6 803e 492b 453e 9515 c83d
000002f0: 8b54 eabc 8a79 70be 87dc 7c3d 21e9 a8bd
00000300: 760c 96bd 3a02 e03d c4bb 613c 29db 06be
00000310: 9aac f0bd b469 f63c 015d c73d 1315 00be
00000320: 8dc2 2c3e 159e 1fbd a541 303e cf90 9ebd
00000330: faa9 813e 6281 c3bb 3a1a a9bd dc5f f5bd
00000340: 9be6 523e 42a0 933e f366 2bbd 2bad 7dbe
00000350: 9bb2 17bd fa6a 613e c67a 8bbd 731b 483e
00000360: 9d11 313e 676e c73e ad6a cebd cc15 76be
00000370: a7e9 7dbd 9c51 7a3e ff79 7f3d 2a16 1f3e
00000380: 5a4a d5bd 2272 973e 0e22 12be 2c4e c03d
00000390: ebb3 12be e3af 243d aff5 f6bd 87f0 703e
000003a0: 1a15 94bd 1533 de3b 0604 e1bd 68c8 9bbe
000003b0: 667b 17be 6398 d53b 114f 5e3e 3a60 373c
000003c0: 2f00 b1bd 9c0c 6abe 520a ebbc ea2a 603d
000003d0: c90d ab3b afb0 913e aadf 483e 9dc1 a0bd
000003e0: 6e8d 0abe 88cc 8ebd fd12 0e3e b9fe 9ebd
000003f0: 6d23 5cbd 593b 20be 6b72 463e 8b4b 6fbe
-0.21576981 0.05096895 -0.09079916 0.04573053 0.20434421 -0.1263808 0.070385054 0.17675774
-0.09926595 0.005592238 -0.27724504 -0.023597296 -0.21330263 0.015185359 0.19488467 0.18517941
-0.18662928 0.16125695 -0.05997817 -0.20173666 0.022059638 -0.2696879 0.33909994 -0.05170555
0.09417696 -0.03858409 0.14566615 -0.11101914 0.41976395 0.057250217 0.041539688 0.20739739
0.15724951 -0.21935245 0.12397035 -0.2979967 -0.081441805 -0.116281055 -0.15808286 -0.22152884
0.2548584 -0.029851362 -0.2402388 -0.026694907 -0.2846227 -0.07547011 -0.3988326 -0.27256185
-0.19741862 0.04212275 0.058122616 0.03291516 -0.2009726 0.18079728 -0.019405926 -0.03129557
-0.46866032 -0.17009924 0.28775993 0.3206925 0.03436262 0.2958936 0.11207439 0.13566236
0.32836452 -0.120009996 -0.0019761783 0.23877107 -0.039909415 0.24344842 0.24361584 0.051653877
-0.24074021 -0.20137814 0.18107852 -0.14970857 0.050490297 -0.0854207 0.09834368 0.21890056
-0.19769119 0.13372378 -0.060780443 0.21383896 -0.19080043 -0.26800802 -0.35448697 -0.010272664
-0.23487216 0.022957783 0.16236332 0.36718023 -0.27491927 -0.18944786 -0.3165327 -0.06027769
-0.47937325 -0.05661922 0.07468734 0.1740412 0.18407866 -0.2965214 0.35792908 -0.012996457
-0.28532538 -0.32162026 -0.16415511 -0.030335598 0.18980078 -0.084411755 0.06678775 0.03339329
-0.21926203 0.10758615 -0.09593475 -0.05665093 -0.030130146 -0.15628006 -0.045239054 -0.11874394
-0.030407837 -0.0287226 -0.03386873 -0.14841463 -0.10616375 -0.020163322 0.21813935 0.21002823
-0.0062634563 0.12296209 0.14613082 -0.07272593 0.13923755 0.14625384 -0.33464095 -0.07704448
0.053963646 -0.0035661228 -0.111167915 0.2297582 -0.15074976 -0.090410896 0.20258367 -0.0005785538
0.29736388 -0.040709306 0.15244281 0.19595878 0.09272861 0.13521735 -0.14529313 0.035322193
-0.068929866 0.10185725 -0.16729231 -0.31139225 -0.0015268304 -0.119928434 0.3203405 0.009027301
-0.031990748 0.29810202 -0.02364519 0.16092986 0.1837627 -0.028841801 -0.40717924 -0.08846387
0.043912333 -0.060847927 -0.37280455 0.31421757 0.2241268 0.21205361 -0.24712005 0.21511422
-0.19162446 0.22278397 0.09697562 -0.071760565 -0.07478065 -0.096520334 -0.15146035 0.027667452
-0.21452098 0.25151765 0.19254793 0.097697414 -0.028604766 -0.23483863 0.06173375 -0.08247591
-0.073265955 0.10937925 0.013777677 -0.1316954 -0.11751671 0.0300797 0.09734536 -0.12508039
0.1687109 -0.03896912 0.17212541 -0.07742464 0.25324994 -0.0059663514 -0.082569554 -0.11981174
0.20595782 0.28833205 -0.041846227 -0.2477309 -0.037035566 0.22013465 -0.068105265 0.19541721
0.17291875 0.38951418 -0.100789405 -0.24031752 -0.061990406 0.24445194 0.062372204 0.15535799
-0.10414572 0.29579264 -0.14270803 0.0938991 -0.14326446 0.0402068 -0.12058579 0.23529254
-0.07230587 0.006780992 -0.109870955 -0.30426335 -0.14793167 0.00651841 0.21709849 0.011192376
-0.08642613 -0.22856373 -0.028691445 0.054728426 0.005220149 0.2845511 0.19616571 -0.07849429
-0.13530514 -0.06972605 0.13874431 -0.07763428 -0.053744722 -0.1564764 0.19379584 -0.23368661

fc_3.bias f4 [10]
00000000: 9ff9 0fbe 39d5 8c3c 61d7 80be 0f9d 20bd
00000010: 2201 263c b89a debc 76fe 40be 0d18 3bbe
00000020: a703 893e 2e8c bebc
-0.14060067 0.017191516 -0.2516432 -0.039212283 0.010132106 -0.027173385 -0.18847069 -0.18270893
0.267606 -0.023260202
