Computer_Vision/Lesson_2/data/conv.onnx (onnx, 238978 bytes, 9 tensors)

depthwise1.weight f4 [1, 1, 3, 3]
-0.8282151 -0.3209803 1.2675467 -0.50007045 -0.07272141 0.48522073 -1.2489967 0.2687541
0.868954
00000000: e805 54bf 8857 a4be f83e a23f 9e04 00bf
00000010: f6ee 94bd da6e f83e 20df 9fbf 239a 893e
00000020: c573 5e3f

pointwise1.weight f4 [8, 1, 1, 1]
-0.09708109 0.73487556 -0.34207708 1.3465174 -0.46231607 -0.77211547 -1.4063487 0.9857682
00000000: 73d2 c6bd ce20 3c3f ba24 afbe af5a ac3f
00000010: b1b4 ecbe 5ca9 45bf 3c03 b4bf 4e5b 7c3f

pointwise1.bias f4 [8]
-0.023987254 0.20229906 -1.030737 -1.290908 -1.0185466 -1.5493622 -0.3931473 0.27679187
00000000: eb80 c4bc 7c27 4f3e 31ef 83bf 793c a5bf
00000010: bc5f 82bf 8051 c6bf 9a4a c9be aab7 8d3e

fc_1.weight f4 [128, 392]
-0.008652639 -0.021533322 -0.0139487395 0.0024877186 -0.016774729 -0.015692381 -0.014803328 -0.06016309
0.030724635 -0.016944496 -0.024062352 0.009134285 0.04810135 -0.042261697 -0.010986479 -0.03770478
-0.0064811734 -0.03273395 0.027579919 0.048079394 -0.042295467 0.013834751 -0.037078157 -0.019660333
0.02285935 0.0023712115 -0.023543075 -0.05083641 0.0046271905 0.00994923 -0.03621073 0.045894213
0.010234505 -0.029950317 -0.0009871083 -0.045467097 -0.034587592 0.039850164 0.03778757 0.012151443
-0.053103376 -0.009293062 0.002313272 0.03637991 0.010160942 0.013578153 0.031196957 -0.026556132
-0.021968508 -0.015537095 -0.035272952 -0.022262994 0.040160906 -0.021615302 -0.009029384 -0.04521316
0.007120391 0.060237747 0.039794136 0.008578542 0.01591294 0.06329121 -0.08168734 0.00071667094
-0.048126288 0.0009958377 0.052805707 0.05401387 0.025592336 -0.044285484 -0.04810784 0.009202387
0.03429169 0.05651056 0.037079506 -0.031214692 -0.08605798 0.007527852 -0.026636507 0.042821914
0.044112206 0.04278937 0.04947365 -0.05931135 -0.019788384 -0.08558703 4.7972233e-05 0.012005066
0.016929792 0.06438026 -0.061404187 -0.00584054 -0.021416122 -0.055167157 0.035051383 -0.008253567
-0.02448605 -0.0621721 0.02972853 -0.036393534 -0.0027299728 -0.031299524 0.034517925 -0.026122874
-0.03837945 -0.037535813 7.203854e-05 0.032266825 -0.00808181 0.030764014 0.0070048124 -0.0018209458
-0.005846167 -0.023288818 0.03874452 0.0057341326 -0.020017779 0.029970024 0.010339967 -0.044127803
0.03529095 -0.0035839179 -0.01889816 0.031822987 0.03682069 -0.006668126 0.017977716 -0.017513828
0.010576159 0.050969776 0.02256419 0.017505867 0.020082235 0.03519782 0.0096602375 0.046559807
0.032693487 0.0033112108 0.015499054 -0.0024611673 0.014101733 -0.03267642 -0.005047468 -0.03590027
-0.0024403974 -0.020747555 -0.019618286 -0.0057083988 -0.009865577 -0.0016128693 -0.016231691 0.02583795
-0.017522572 -0.062878184 0.03794549 0.02346389 -0.015152644 0.025618562 -0.08022145 0.08097438
-0.012626918 -0.006393413 0.058598764 0.06310308 0.037665863 0.029388525 0.027542366 -0.013956372
-0.0013697321 0.038147625 0.07887596 0.026731608 -0.008077587 -0.03359842 -0.037682716 0.0065613645
0.024271363 0.0009617972 0.03954441 0.15560348 0.0697842 -0.024760691 -0.039141495 -0.011320483
0.014604248 0.027536 0.08049595 0.09326994 -0.09140053 -0.057957362 -0.01517828 -0.01092951
-0.022499494 0.042278863 0.04491263 -0.10134811 -0.03320859 0.049357254 0.04300302 0.041529935
-0.03721747 0.03213324 0.03614903 0.04335623 0.045958158 -0.012823264 0.008349072 -0.0014918463
-0.017917655 0.0029247242 -0.03714385 0.050160766 0.023396755 -0.039187625 0.031070052 -0.003842995
0.012278294 0.024143932 -0.014345695 -0.031986494 0.04590891 0.025442656 -0.017367005 -0.02508349
-0.036506444 -0.03709598 0.0013580286 0.034493275 -0.0028902418 0.038502418 -0.022364663 -0.044856597
0.019101508 -0.011935911 0.0316232 -0.04145299 -0.011192448 0.053942613 0.032375343 0.0123771485
-0.02361759 -0.035784885 -0.0258435 0.024146376 -0.018441927 -0.044329837 -0.021129921 0.0014838981
0.029930646 -0.029970312 -0.014608695 0.025395893 0.0080672745 0.021858701 -0.04645641 0.013543756
00000000: ccc3 0dbc a666 b0bc 4189 64bc fe08 233b
00000010: 286b 89bc 4f8d 80bc a889 72bc 926d 76bd
00000020: 3bb2 fb3c 2fcf 8abc 691e c5bc f8a7 153c
00000030: ec05 453d 9a1a 2dbd a200 34bc 5470 1abd
00000040: 0660 d4bb 0914 06bd 48ef e13c e6ee 443d
00000050: 033e 2dbd 27ab 623c 44df 17bd b50e a1bc
00000060: 8843 bb3c 5466 1b3b 68dd c0bc d739 50bd
00000070: b09f 973b 1802 233c b451 14bd 92fb 3b3d
00000080: a0ae 273c 5e5a f5bc dc61 81ba b53b 3abd
00000090: b8ab 0dbd ed39 233d 24c7 1a3d d916 473c
000000a0: ed82 59bd ed41 18bc 449a 173b 1a03 153d
000000b0: 147a 263c e776 5e3c c390 ff3c 3f8c d9bc
000000c0: 4df7 b3bc 4d8f 7ebc 5f7a 10bd e260 b6bc
000000d0: c37f 243d 9312 b1bc fbef 13bc 6f31 39bd
000000e0: 2b52 e93b dbbb 763d 2dff 223d 038d 0c3c
000000f0: db5b 823c d29e 813d b14b a7bd f9de 3b3a
00000100: 1220 45bd c586 823a cc4a 583d a63d 5d3d
00000110: 05a7 d13c b264 35bd ba0c 45bd 9cc5 163c
00000120: 7175 0c3d 9e77 673d aee0 173d f4b5 ffbc
00000130: 2b3f b0bd 33ac f63b ce34 dabc 0866 2f3d
00000140: 00af 343d e843 2f3d e2a4 4a3d 75f0 72bd
00000150: 401b a2bc 4148 afbd cb35 4938 e5b0 443c
00000160: 59b0 8a3c ccd9 833d f582 7bbd 0062 bfbb
00000170: dd70 afbc f5f6 61bd 0a92 0f3d f839 07bc
00000180: f896 c8bc 2ca8 7ebd 3f89 f33c 6311 15bd
00000190: 58e9 32bb ee33 00bd ab62 0d3d a3ff d5bc
000001a0: c533 1dbd 27bf 19bd 6613 9738 382a 043d
000001b0: 9169 04bc d004 fc3c a088 e53b cdac eeba
000001c0: 3491 bfbb 31c8 bebc 93b2 1e3d 64e5 bb3b
000001d0: 53fc a3bc b283 f53c f768 293c 5bbf 34bd
000001e0: 3e8d 103d 2ae0 6abb 50d0 9abc d258 023d
000001f0: 4bd1 163d 4c80 dabb 0146 933c 2979 8fbc
00000200: a047 2d3c afc5 503d 89d8 b83c 7768 8f3c
00000210: 8083 a43c 972b 103d f945 1e3c 7fb5 3e3d
00000220: 9be9 053d e600 593b bfef 7d3c 894b 21bb
00000230: f50a 673c b6d7 05bd 3b65 a5bb 290c 13bd
00000240: 13ef 1fbb c7f6 a9bc 87b6 a0bc 850d bbbb
00000250: 3ba3 21bc ea66 d3ba 53f8 84bc 1caa d33c
00000260: 7f8b 8fbc 47c6 80bd bb6c 1b3d 5837 c03c
00000270: cc42 78bc 05de d13c 254b a4bd e5d5 a53d
00000280: 22e1 4ebc d67f d1bb 4205 703d 303c 813d
00000290: 8547 1a3d 34c0 f03c 87a0 e13c 44a9 64bc
000002a0: 9588 b3ba af40 1c3d b889 a13d 3ffc da3c
000002b0: db57 04bc 7f9e 09bd 3159 1abd b700 d73b
000002c0: bdd4 c63c 1e21 7c3a 52f9 213d 8556 1f3e
000002d0: 05eb 8e3d efd6 cabc d552 20bd 8c79 39bc
000002e0: a846 6f3c 2d93 e13c 10db a43d 4f04 bf3d
000002f0: 3330 bbbd b364 6dbd 52ae 78bc b011 33bc
00000300: dc50 b8bc 9a2c 2d3d 4ef6 373d 998f cfbd
00000310: bb05 08bd d52a 4a3d ef23 303d 4b1b 2a3d
00000320: 5971 18bd 259e 033d 0111 143d 4d96 313d
00000330: 9f3e 3c3d ab18 52bc 8cca 083c 0e8a c3ba
00000340: 0cc8 92bc bbac 3f3b 2624 18bd 6075 4d3d
00000350: 8daa bf3c 3483 20bd 9f86 fe3c c2da 7bbb
00000360: e62a 493c 7fc9 c53c 350a 6bbc 4504 03bd
00000370: fb0a 3c3d 1e6d d03c 4045 8ebc e47b cdbc
00000380: c887 15bd f4f1 17bd e1ff b13a d248 0d3d
00000390: 366a 3dbb b6b4 1d3d 1936 b7bc 8dbb 37bd
000003a0: c47a 9c3c d78e 43bc 5487 013d 9cca 29bd
000003b0: 8860 37bc eef2 5c3d 029c 043d 86c9 4a3c
000003c0: ad79 c1bc 2c93 12bd bfb5 d3bc 9fce c53c
000003d0: 8613 97bc 3493 35bd a818 adbc 5c7f c23a
000003e0: 1d31 f53c 4d84 f5bc 4f59 6fbc 0c0b d03c
000003f0: 9a2c 043c 0511 b33c 1449 3ebd a1e6 5d3c

fc_1.bias f4 [128]
-0.0020665508 0.040396087 -0.012927408 0.019080108 -0.024675677 0.0045599025 0.018365253 -0.03931618
0.008113479 0.047281083 0.019259255 -0.047798235 -0.0066264295 -0.036468443 0.011957996 0.014576951
-0.04062985 -0.03295287 0.011521402 -0.035921905 -0.003268319 -0.0045655556 0.034493342 0.043046743
0.0011100096 0.045989208 0.008889739 -0.005864176 0.03879196 0.007106496 0.0016430182 -0.012608032
0.03651722 0.009347893 0.028979264 0.04545761 0.038415086 -0.023806429 0.009466776 0.027593678
-0.007656138 -0.048333813 0.038324874 -0.016051788 0.02631768 -0.041808214 0.03377443 0.0110754445
0.020196214 0.024267696 -0.027612077 -0.049793947 -0.025887616 -0.0043014633 -0.046347607 0.029593935
-0.027862554 0.023246959 -0.026203243 -0.03914226 -0.04656001 -0.044892672 -0.014302227 -0.0010183826
0.027588502 0.017080747 -0.019317761 -0.023150913 0.028414577 -0.03836942 -0.037719402 -0.0050901123
0.007565588 0.006896952 0.048230533 -0.018350964 0.036893215 -0.018448157 -0.014366631 -0.043366477
-0.009644732 0.035108034 0.0015551669 -0.04036574 -0.0028741185 -0.006454908 0.033467025 0.027343374
-0.019714598 -0.045892633 0.04313781 -0.0005548372 -0.0064736935 -0.00042242865 -0.030599995 -0.0166843
-0.012949538 0.029917758 -0.029335896 -0.016309705 -0.038504645 -0.029195363 0.04873658 0.022435565
-0.0010476394 -0.03209263 0.038814545 -0.0012869919 -0.036481224 0.0058258777 0.009768997 0.029109752
0.009233549 -0.029269764 0.011390601 -0.0044666426 0.04221961 0.020153617 0.05015991 0.014029164
-0.021031424 -0.010965161 -0.013158377 -0.0034815862 -0.029905424 -0.031668045 -0.030842768 -0.021224556
00000000: f86e 07bb 5e76 253d 7bcd 53bc e34d 9c3c
00000010: a524 cabc 3c6b 953b ba72 963c 010a 21bd
00000020: 66ee 043c cfa9 413d 96c5 9d3c 15c8 43bd
00000030: 8522 d9bb ef5f 15bd 78eb 433c 2ad4 6e3c
00000040: 7c6b 26bd 97f9 06bd 43c4 3c3c d922 13bd
00000050: 4b31 56bb a89a 95bb e448 0d3d c851 303d
00000060: be7d 913a 2e5f 3c3d 45a6 113c 4628 c0bb
00000070: 51e4 1e3d 9cdd e83b 8b5a d73a eb91 4ebc
00000080: 1593 153d e827 193c ec65 ed3c c231 3a3d
00000090: 2359 1d3d b305 c3bc 891a 1b3c 230c e23c
000000a0: 57e0 fabb adf9 45bd 8bfa 1c3d 0a7f 83bc
000000b0: 2d98 d73c 173f 2bbd 0f57 0a3d c875 353c
000000c0: 8872 a53c 0ccd c63c b932 e2bc bdf4 4bbd
000000d0: 4412 d4bc 4af3 8cbb fdd6 3dbd fb6e f23c
000000e0: 0340 e4bc 6870 be3c 2fa8 d6bc a253 20bd
000000f0: b6b5 3ebd 61e1 37bd e353 6abc 407b 85ba
00000100: 4801 e23c ecec 8b3c 4840 9ebc fca6 bdbc
00000110: b0c5 e83c 4129 1dbd a97f 1abd f5ca a6bb
00000120: c1e8 f73b d4ff e13b 618d 453d c354 96bc
00000130: 571d 173d 9720 97bc 0562 6bbc 0ca1 31bd
00000140: f004 1ebc 71cd 0f3d bed6 cb3a 8c56 25bd
00000150: b55b 3cbb b183 d3bb b814 093d 36ff df3c
00000160: 8280 a1bc eaf9 3bbd 46b1 303d 7f72 11ba
00000170: 4721 d4bb 6a79 ddb9 d7ac fabc 83ad 88bc
00000180: 4d2a 54bc 1616 f53c d551 f0bc ee9b 85bc
00000190: 0cb7 1dbd 1d2b efbc 02a0 473d caca b73c
000001a0: f250 89ba 9073 03bd 00fc 1e3d 48b0 a8ba
000001b0: 566d 15bd 01e7 be3b 250e 203c 9377 ee3c
000001c0: 5048 173c 25c7 efbc a59f 3a3c ea5c 92bb
000001d0: 78ee 2c3d 3319 a53c 7a74 4d3d 94da 653c
000001e0: 184a acbc 38a7 33bc 3c96 57bc 532b 64bb
000001f0: 38fc f4bc 5ab6 01bd f9a9 fcbc 1fdf adbc

fc_2.weight f4 [64, 128]
-0.053105365 0.10140357 -0.030758161 0.023848716 0.012840299 0.05206996 0.09402721 -0.12013602
-0.12212266 0.050010256 -0.11344366 0.15973087 0.008686464 0.029948285 0.0076332837 0.061870936
-0.07949107 0.0748282 -0.018232483 -0.0015483364 0.06825784 -0.008286556 -0.033845745 0.17019926
0.15459722 -0.0848003 0.13721117 -0.050581336 0.049602557 -0.044954173 0.029819656 0.06257841
0.0849275 0.113266 -0.0029668761 -0.031091018 -0.04191685 0.033810776 -0.13202879 -0.054647956
-0.14730264 -0.10327523 -0.10844519 0.10726901 -0.027714493 -0.07736075 -0.03404149 0.045305777
-0.033491597 0.059242472 0.03559099 -0.101516455 0.014297743 -0.060405556 -0.11948918 0.043024495
-0.025414277 0.15029812 0.17029801 0.057464253 -0.05225553 0.013596525 -0.040702987 -0.1314547
-0.06256428 -0.020196151 0.11155885 -0.006932963 -0.0371213 -0.031165343 -0.066170424 0.056793172
0.15501685 0.16213134 -0.22280426 -0.15075763 -0.0015514959 -0.09608232 -0.17213008 0.0040894113
-0.08709969 -0.1282716 0.102473736 0.102550186 0.018711032 -0.010153317 0.021444099 -0.05042121
-0.02352581 0.015573959 0.09761784 0.081485376 -0.029006405 0.09772165 -0.04814583 -0.025306866
-0.21228507 0.077847585 0.00017592193 0.19603379 0.03810595 0.047354992 -0.00085932825 0.09813811
-0.038862906 0.027273217 -0.05705096 -0.0056981654 -0.29384097 0.12712532 -0.17057043 -0.084138356
0.24490151 -0.09028511 -0.07807972 -0.05755146 0.06516648 -0.04583608 -0.09404951 -0.09436733
-0.15053871 -0.038657162 -0.1942284 0.08711512 -0.032817226 0.21135692 -0.060882024 -0.06388974
0.03368622 0.03880056 0.04641761 -0.019166645 0.018959764 -0.052571375 -0.014591669 0.008564267
-0.028606795 0.018772628 -0.0029015832 -0.035970073 -0.045123912 0.058701724 -0.0077032973 0.16664128
-0.006111032 0.015077905 0.06808715 -0.018100638 -0.10918649 -0.06619526 0.044895507 0.08990587
0.05406052 -0.042354688 -0.032167982 0.064746074 -0.03399188 -0.07126634 0.08388814 -0.0793354
-0.007511795 0.14483304 -0.046420526 0.0844217 0.035122864 0.059047215 -0.015527195 -0.009414384
0.070750855 0.016656633 0.008989371 0.004612675 -0.15786107 -0.06494611 0.04588903 0.070062436
0.09296034 0.0067282687 -0.0014756395 0.041318443 -0.017424272 -0.1756449 -0.14121646 0.0038582033
0.016979309 -0.018326607 -0.14088151 -0.06258486 0.070476755 0.05782453 0.07796074 -0.014975818
0.008421465 0.01519536 -0.074076705 -0.0041931374 -0.042911466 0.02843495 0.027038084 -0.034869336
-0.09287627 0.08734954 0.13614063 -0.13264869 0.07410985 -0.1252286 0.00030029227 -0.06773335
-0.008223687 -0.14834319 0.017186351 -0.082989305 0.05342671 0.08274531 -0.0004313461 0.050787214
-0.009158571 -0.13973871 0.058615107 0.023784537 0.066020936 0.07398349 0.013199678 -0.08729063
0.03886694 -0.03870077 -0.10186758 -0.08947764 0.11328456 -0.0048287716 -0.04059816 -0.010640364
-0.006615992 0.04278503 0.1931862 0.05414022 0.028962396 -0.07509426 -0.12159555 0.05486126
-0.0069503076 0.0010120613 -0.043389373 -0.0035404402 -0.0024276914 0.15143496 -0.08824577 -0.07944771
-0.009124856 -0.07680956 0.12333133 -0.019839657 0.04732936 0.027355462 -0.011941813 0.042003036
00000000: 0385 59bd adac cf3d 8af8 fbbc 625e c33c
00000010: 1e60 523c 4f47 553d 5691 c03d e009 f6bd
00000020: 721b fabd 8ed7 4c3d 2655 e8bd 7d90 233e
00000030: ac51 0e3c 1b56 f53c a020 fa3b 616c 7d3d
00000040: 37cc a2bd 873f 993d 4a5c 95bc 8cf1 caba
00000050: c4ca 8b3d 56c4 07bc d6a1 0abd b748 2e3e
00000060: bc4e 1e3e c8ab adbd 1681 0c3e 602e 4fbd
00000070: 0d2c 4b3d de21 38bd 5a48 f43c 1c29 803d
00000080: 78ee ad3d 01f8 e73d ec6f 42bb 97b2 febc
00000090: 01b1 2bbd 2b7d 0a3d 8e32 07be 89d6 5fbd
000000a0: 81d6 16be f781 d3bd 8318 debd dbaf db3d
000000b0: 8109 e3bc 506f 9ebd 176f 0bbd 8d92 393d
000000c0: 7c2e 09bd 3ca8 723d dcc7 113d dce7 cfbd
000000d0: 1541 6a3c d16b 77bd beb6 f4bd 743a 303d
000000e0: 9a31 d0bc c0e7 193e 9a62 2e3e a35f 6b3d
000000f0: e509 56bd f6c3 5e3c 2db8 26bd 109c 06be
00000100: b421 80bd 6672 a5bc f778 e43d e92d e3bb
00000110: 810c 18bd 764e ffbc 5c84 87bd f59f 683d
00000120: bdbc 1e3e c205 263e cd26 64be 3560 1abe
00000130: 905b cbba cfc6 c4bd de42 30be 7800 863b
00000140: 5361 b2bd a159 03be c0dd d13d d505 d23d
00000150: e147 993c 195a 26bc 89ab af3c 7886 4ebd
00000160: 33b9 c0bc eb29 7f3c ddeb c73d cee1 a63d
00000170: d79e edbc 4a22 c83d 9034 45bd 5850 cfbc
00000180: 4261 59be 8e6e 9f3d af77 3839 15bd 483e
00000190: fc14 1c3d 4ff7 413d 8b44 61ba a2fc c83d
000001a0: b62e 1fbd 156c df3c 44ae 69bd adb7 babb
000001b0: 5372 96be 242d 023e 04aa 2ebe bb50 acbd
000001c0: 76c7 7a3e 66e7 b8bd 43e8 9fbd 14bb 6bbd
000001d0: 0176 853d 9dbe 3bbd 089d c0bd a943 c1bd
000001e0: d226 1abe f956 1ebd cfe3 46be 6969 b23d
000001f0: 5b6b 06bd f36d 583e 6e5f 79bd a0d8 82bd
00000200: 90fa 093d 56ed 1e3d 6420 3e3d 5e03 9dbc
00000210: 8251 9b3c 1555 57bd e511 6fbc 2451 0c3c
00000220: cc58 eabc 0ec9 993c 7d28 3ebb 5b55 13bd
00000230: dad3 38bd 3871 703d f16b fcbb 03a4 2a3e
00000240: 0d3f c8bb 5109 773c 4771 8b3d ca47 94bc
00000250: 2b9d dfbd 6191 87bd 5ae4 373d 9220 b83d
00000260: 906e 5d3d 1c7c 2dbd 93c2 03bd 9799 843d
00000270: 123b 0bbd 16f4 91bd 8ccd ab3d 997a a2bd
00000280: 8125 f6bb 1d4f 143e 7323 3ebd 49e5 ac3d
00000290: fedc 0f3d 7edb 713d c765 7ebc ca3e 1abc
000002a0: d3e5 903d 7e73 883c 2848 133c ec25 973b
000002b0: 55a6 21be 7702 85bd 23f6 3b3d e57c 8f3d
000002c0: fe61 be3d cf78 dc3b 3f6a c1ba 873d 293d
000002d0: 59bd 8ebc 42dc 33be 0c9b 10be e9d9 7c3b
000002e0: 3118 8b3c ae21 96bc 3e43 10be 7e2c 80bd
000002f0: 1e56 903d 6ad9 6c3d e1a9 9f3d 225d 75bc
00000300: 2ffa 093c f6f5 783c 87b5 97bd 9666 89bb
00000310: efc3 2fbd 6af0 e83c f97e dd3c 26d3 0ebd
00000320: ea35 bebd 51e4 b23d 7368 0b3e 0fd5 07be
00000330: e8c6 973d ed3b 00be 8c70 9d39 c8b7 8abd
00000340: a5bc 06bc 47e7 17be 64ca 8c3c 4cf6 a9bd
00000350: f7d5 5a3d 6076 a93d 4b26 e2b9 4106 503d
00000360: d50d 16bc aa17 0fbe 6516 703d cad7 c23c
00000370: fc35 873d a884 973d 7643 583c 6ec5 b2bd
00000380: f132 1f3d b384 1ebd f39f d0bd 0e40 b7bd
00000390: bc01 e83d ac3a 9ebb 424a 26bd ec54 2ebc
000003a0: f7ca d8bb 5b3f 2f3d 9ad2 453e 23c2 5d3d
000003b0: 8c42 ed3c 05cb 99bd 1607 f9bd 33b6 603d
000003c0: 68bf e3bb 24a7 843a 0eb9 31bd bb06 68bb
000003d0: e719 1fbb c411 1b3e 33ba b4bd 7bb5 a2bd
000003e0: 6c80 15bc 554e 9dbd 2395 fc3d c786 a2bc
000003f0: 6edc 413d 9018 e03c 98a7 43bc 600b 2c3d

fc_2.bias f4 [64]
-0.03596565 -0.09580822 0.01340351 -0.08642997 0.08314965 0.05380865 0.005069758 0.062795036
-0.046884466 0.012877113 0.07996001 -0.035060886 0.010504057 0.042210735 0.0809536 -0.07266245
0.0630877 0.06368598 -0.00079313124 0.058152996 -0.105083495 -0.0048892535 0.109002344 -0.06643048
-0.039379798 -0.09268431 0.07262426 0.015250657 0.012175455 0.058474764 0.022385292 0.100905284
-0.06749209 -0.07922731 0.031037228 0.028974913 -0.018944087 -0.057503115 0.047582697 0.058818858
-0.03397642 -0.07661986 0.058190424 -0.048161518 0.06385607 0.041314427 -0.04970749 -0.011894614
-0.058156382 -0.08234381 0.045762498 -0.07247635 -0.015454392 0.01512916 0.012263156 -0.0636097
-0.050944045 -0.014784085 0.06994447 -0.050457817 -0.0036692766 0.055507317 -0.021554159 0.08930909
00000000: b850 13bd 1a37 c4bd 659a 5b3c 3202 b1bd
00000010: 5d4a aa3d 7566 5c3d 3620 a63b af9a 803d
00000020: ed09 40bd 87fa 523c 13c2 a33d 019c 0fbd
00000030: 3519 2c3c 2ae5 2c3d 00cb a53d 0dd0 94bd
00000040: 2034 813d cc6d 823d 23ea 4fba d631 6e3d
00000050: 0436 d7bd 0836 a0bb 9f3c df3d b40c 88bd
00000060: b64c 21bd 46d1 bdbd 07bc 943d e4dd 793c
00000070: 8f7b 473c 3c83 6f3d 5c61 b73c 6ea7 ce3d
00000080: 4b39 8abd ee41 a2bd c941 fe3c cc5c ed3c
00000090: a130 9bbc 6388 6bbd 13e6 423d 0bec 703d
000000a0: dc2a 0bbd e0ea 9cbd 1559 6e3d 0345 45bd
000000b0: f9c6 823d 5139 293d 159a 4bbd a1e1 42bc
000000c0: 6335 6ebd dfa3 a8bd 7571 3b3d 7b6e 94bd
000000d0: 6b34 7dbc 4ce0 773c 67eb 483c cd45 82bd
000000e0: b4aa 50bd f238 72bc 0c3f 8f3d dbac 4ebd
000000f0: 3f78 70bb a45b 633d 5992 b0bc afe7 b63d

fc_3.weight f4 [10, 64]
0.17217846 0.07004938 0.21395376 -0.028709047 0.06667697 -0.1985697 -0.28451937 0.15855233
-0.11430368 -0.18487637 0.22431748 -0.004188761 0.036530033 0.047829706 -0.054461952 0.08360828
0.1563495 0.1361836 -0.26938573 0.051626693 0.16415194 -0.019322421 0.12079104 0.04930216
-0.080748275 -0.036059387 0.056843095 -0.29401216 -0.07635039 0.15378265 0.22643884 -0.26857105
-0.080193534 0.011776842 -0.12837163 -0.22569315 0.07192336 -0.020188315 -0.1272769 -0.18870546
0.25688317 0.1752125 -0.23610549 0.06757274 -0.10579072 -0.03939983 -0.17103541 -0.15020579
-0.12567513 0.09189833 0.011230624 -0.0047142287 0.025671836 0.27737606 -0.10268821 0.20660214
0.17498134 -0.2940856 -0.52976745 -0.08978011 0.37042215 -0.12577714 -0.13135116 -0.4591921
0.19826189 0.1066081 0.22679195 0.09174887 0.022420663 0.17073134 0.050317477 -0.3971488
0.088563785 -0.32419187 -0.07975674 0.1282963 -0.15430382 0.134867 -0.09821825 0.05053515
-0.30709478 0.14895101 -0.20809647 -0.25368437 0.07095155 -0.22352959 -0.2785693 0.00076921366
-0.08177947 0.4070857 -0.23895928 -0.1424439 -0.38408926 0.042768084 0.09030561 0.17924945
0.25902498 0.03169336 0.14832394 0.11284847 0.15937348 0.046885032 0.25663108 -0.18602107
0.10108969 0.0043513193 -0.01694827 0.27208814 0.0047590267 -0.0066603636 -0.04149706 0.095810786
-0.025697023 0.12837282 -0.081610896 -0.25230953 -0.084002875 0.047700003 0.017988982 -0.05948458
0.12736319 -0.08245395 -0.12785129 -0.24147186 -0.34114385 0.35032296 -0.041419636 0.0917868
0.07849762 -0.089370556 -0.016701289 -0.08352237 0.069914505 -0.017144937 0.1460286 -0.044816185
-0.032509424 -0.13415854 -0.045681458 -0.16873732 -0.036427274 0.09824211 0.14929734 -0.0014963021
0.3210968 0.18620872 -0.08008303 -0.17837612 -0.14111969 -0.3625609 0.1819229 0.11014188
0.048718855 -0.084214844 0.4081588 0.08422598 -0.28390008 0.01987368 -0.14295958 0.37066534
-0.16100842 0.32198247 -0.115005255 -0.23830055 -0.090274595 0.14426926 0.001389534 -0.124866545
-0.333697 -0.27177978 -0.17667906 -0.008034579 0.11114446 0.11971098 0.11095859 0.121083036
-0.07403155 -0.058246776 -0.010216175 -0.06390914 -0.11227781 0.18403642 0.081344925 0.2082768
0.09761279 0.044041134 -0.14351128 0.24850443 -0.18369567 -0.14071651 -0.07977807 0.34017017
-0.0769828 -0.2959555 -0.34985256 0.1323726 -0.040482055 0.23099709 0.2454867 -0.077327795
-0.05189189 -0.19184244 -0.14167723 -0.14629571 0.105870016 -0.23347856 0.043496296 0.22943676
0.101428084 0.11351244 0.18318379 -0.20706876 -0.058364186 0.20773369 0.21894892 0.048282176
0.02856655 -0.046657022 0.051162977 0.2257534 -0.07347699 -0.265944 0.032591928 0.28001803
0.35211983 -0.21922262 -0.25307572 0.102581404 0.030583289 -0.15037435 0.03261617 0.28633296
-0.30524534 0.32414007 0.2732625 0.08983674 -0.065904185 -0.18603426 0.16982065 -0.034809943
0.088122845 -0.1662119 -0.100477636 -0.067281775 0.054559574 0.1183785 0.15391617 -0.22557846
-0.20552978 0.10209746 0.010638361 -0.10070262 0.2419126 -0.3588115 -0.012840945 -0.27471718
00000000: 8d4f 303e 0d76 8f3d b216 5b3e 3c2f ebbc
00000010: ef8d 883d db55 4bbe 86ac 91be 8b5b 223e
00000020: 0c18 eabd 3b50 3dbe 7bb3 653e e041 89bb
00000030: 84a0 153d 15e9 433d 7f13 5fbd d13a ab3d
00000040: 151a 203e b773 0b3e edec 89be 8376 533d
00000050: 7217 283e 0e4a 9ebc 4b61 f73d 10f1 493d
00000060: 5a5f a5bd 02b3 13bd 4ed4 683d c388 96be
00000070: 985d 9cbd 3379 1d3e 95df 673e 2582 89be
00000080: 823c a4bd a8f3 403c da73 03be 1b1c 67be
00000090: 8e4c 933d f761 a5bc e054 02be 013c 41be
000000a0: 3186 833e e86a 333e a3c5 71be 9463 8a3d
000000b0: cea8 d8bd b761 21bd e823 2fbe 8ccf 19be
000000c0: fbb0 00be 3135 bc3d a700 383c d179 9abb
000000d0: be4d d23c 3c04 8e3e 324e d2bd 838f 533e
000000e0: 4f2e 333e 6392 96be d79e 07bf a2de b7bd
000000f0: f9a7 bd3e b9cb 00be eb80 06be 3a1b ebbe
00000100: 2a05 4b3e 5955 da3d 263c 683e d5e6 bb3d
00000110: 8aab b73c 32d4 2e3e b319 4e3d 1657 cbbe
00000120: ee60 b53d 7afc a5be 8057 a3bd 1b60 033e
00000130: d201 1ebe 931a 0a3e a626 c9bd f2fd 4e3d
00000140: 873b 9dbe 9d86 183e 3e17 55be ebe2 81be
00000150: 0c4f 913d f1e4 64be a3a0 8ebe 0ea5 493a
00000160: ff7b a7bd 896d d03e beb1 74be d0dc 11be
00000170: 59a7 c4be 962d 2f3d 26f2 b83d 2b8d 373e
00000180: ec9e 843e e6d0 013d 3be2 173e 191d e73d
00000190: cd32 233e 850a 403d 2665 833e 4f7c 3ebe
000001a0: 1d08 cf3d 8395 8e3b 19d7 8abc 234f 8b3e
000001b0: 9cf1 9b3b 2e3f dabb d2f8 29bd 7238 c43d
000001c0: 9082 d2bc 2a74 033e 9d23 a7bd b72e 81be
000001d0: b309 acbd 1461 433d a15d 933c 1aa6 73bd
000001e0: 7f6b 023e 9edd a8bd 73eb 02be 6644 77be
000001f0: 68aa aebe 885d b33e a3a7 29bd b8fa bb3d
00000200: 5cc3 a03d e907 b7bd 24d1 88bc c70d abbd
00000210: 562f 8f3d 8a73 8cbc 8588 153e 2d91 37bd
00000220: 9a28 05bd db60 09be 7b1c 3bbd 7ac9 2cbe
00000230: c434 15bd 2933 c93d 67e1 183e 911f c4ba
00000240: cd66 a43e 80ad 3e3e 9202 a4bd 3ba8 36be
00000250: ae81 10be 95a1 b9be ff49 3a3e 1192 e13d
00000260: 6c8d 473d d578 acbd 31fa d03e ac7e ac3d
00000270: 5a5b 91be 21ce a23c ff63 12be d9c7 bd3e
00000280: 64df 24be e3da a43e e087 ebbd 0f05 74be
00000290: e3e1 b8bd 52bb 133e 0621 b63a 08ba ffbd
000002a0: 55da aabe b826 8bbe 5beb 34be 78a3 03bc
000002b0: b59f e33d 082b f53d 423e e33d 62fa f73d
000002c0: da9d 97bd 2c94 6ebd be61 27bc cce2 82bd
000002d0: e9f1 e5bd 0b74 3c3e 2b98 a63d 8346 553e
000002e0: 37e9 c73d 7a64 343d 9ff4 12be f277 7e3e
000002f0: b81a 3cbe fd17 10be af62 a3bd c92a ae3e
00000300: 29a9 9dbd 7b87 97be e01f b3be af8c 073e
00000310: 83d0 25bd 808a 6c3e de60 7b3e 095e 9ebd
00000320: 978c 54bd 5872 44be d613 11be 8bce 15be
00000330: 61d2 d83d 0115 6fbe 2c29 323d 78f1 6a3e
00000340: 87b9 cf3d 3679 e83d 8894 3b3e d509 54be
00000350: 490f 6fbd 24b8 543e 2534 603e 88c3 453d
00000360: 6604 ea3c 6f1b 3fbd 4590 513d e62b 673e
00000370: 1b7b 96bd d029 88be 1d7f 053d 865e 8f3e
00000380: 0d49 b43e e57b 60be 2493 81be 3316 d23d
00000390: ce89 fa3c bcfb 19be 8898 053d 3c9a 923e
000003a0: 1e49 9cbe b0f5 a53e 10e9 8b3e 53fc b73d
000003b0: c6f8 86bd c47f 3ebe 77e5 2d3e df94 0ebd
000003c0: c079 b43d 7433 2abe 38c7 cdbd 07cb 89bd
000003d0: dc79 5f3d 6d70 f23d 339c 1d3e 0afe 66be
000003e0: 6676 52be 7918 d13d 854c 2e3c 2d3d cebd
000003f0: f0b7 773e 24b6 b7be d462 52bc bba7 8cbe

fc_3.bias f4 [10]
-0.15471722 -0.07257353 0.11475045 0.06315496 0.05892669 0.10597002 0.023267658 -0.040442344
0.036362514 0.08612649
00000000: 316e 1ebe 6ea1 94bd 4902 eb3d 6357 813d
00000010: 1d5d 713d cf06 d93d d19b be3c dfa6 25bd
00000020: dcf0 143d 1663 b03d
